data.pth (torch, 7959 bytes, 6 tensors)

l1.weight f4 [8, 109]
-0.20335509 0.83239454 0.8637456 0.6311685 0.9070858 0.79963034 0.4233075 0.450007
-0.12708798 0.9902258 -0.37723675 -0.48550674 -0.16593984 1.1694655 -0.6763559 1.1569017
-1.243322 -0.17674541 -0.6548513 0.95613366 -0.20767091 0.29015422 -0.12482833 -0.62386465
-0.33048168 0.62007916 0.40661755 -0.5375549 0.6564181 0.36250645 -0.14643872 -0.71955514
-0.15910056 -0.03362391 -0.22725949 0.7111834 0.74097174 0.16528226 0.42116317 0.47449455
0.34879494 0.3742719 0.62841403 -0.30230933 0.36932388 -0.39122033 0.8257467 0.28651834
0.7807977 0.32519197 0.4915809 0.6043611 -0.46668 -0.54848003 -0.51358587 -0.67216104
-0.89144737 -0.87399435 -0.15664308 -0.5190976 0.15558384 -0.0475961 0.17118692 -0.19769827
-0.08865505 0.60012245 0.46161434 0.5009138 0.08864672 0.90022695 0.46529955 -0.05300599
0.090401985 -0.47027534 -0.35838217 0.6908817 0.16766044 -0.53954804 0.31288588 0.14516415
0.089028426 0.7628096 -0.07500655 0.2938626 0.34161517 0.5245149 -0.5739532 -0.9831448
-0.8094773 0.0029690347 0.7905278 0.8484272 0.15798095 0.6361313 0.43313047 -0.112988435
0.2769419 0.034066398 -0.78162396 0.7037342 0.21082307 0.34267417 -0.38635615 1.0568393
0.67762315 -0.05750715 0.14085656 1.1409807 -0.45603997 -0.36537355 -0.35843045 -0.47626334
-0.42054972 0.47970295 1.0107851 0.17209478 -0.83172804 -0.22204071 -0.8522748 0.57197106
0.4983652 0.46246862 0.515042 -0.1942827 0.48212865 0.093851395 -0.025317008 -0.25686058
0.026487967 -0.17526883 0.21519195 -0.08213507 -0.49738386 -0.46520406 0.32316056 -0.39664686
0.6924167 -0.29704592 -0.8221755 -0.849034 0.0697667 0.48499805 -0.37412784 0.023122557
-0.39534205 0.48110226 0.5128658 -0.39885548 0.0513256 0.21102381 -0.033362594 0.49825916
0.1971896 0.20722716 0.541473 0.50064194 0.14153641 -0.6649419 -0.06544633 0.44006887
-0.90006644 0.52135855 0.5037826 0.53484046 1.2736613 0.57018024 1.1739043 -0.10669229
-0.21748461 -0.13999215 -0.31729266 -0.504682 0.3776675 -0.30288252 0.48149142 0.20117263
0.4361721 -0.13588725 0.4955629 -0.016687393 -0.20844758 0.400515 0.59229195 0.7229684
-0.04644333 -0.51773363 -0.11869938 -0.91398406 0.23459892 -0.26596162 0.47428867 -0.32273754
0.122321725 -0.44010103 0.42615345 -0.44293833 -1.1147029 -0.09839244 -0.9609543 -0.9612515
-0.24083844 -0.3996732 -0.41840845 0.17667419 -0.89820176 -0.71251297 0.34827733 0.6077002
0.2762045 0.38134727 -0.021513633 0.39763546 1.1276796 -0.4352396 -0.5295195 0.24439587
0.007816962 0.22143568 0.005469974 -0.3011862 -0.36774 -0.0051367474 0.4938238 0.27338848
0.48432505 0.801576 -0.35594285 -0.037409373 0.43660516 0.6430757 0.46365568 -0.78169197
0.43018436 -0.78050244 0.42291892 0.7370717 0.3873814 -0.26220036 -0.46081856 -0.47068524
0.13874437 0.6825483 0.20024113 -0.30906415 -0.3890694 0.5232023 0.21134044 -0.9693344
-0.8518461 0.419129 0.43138447 0.103701346 0.069577254 -0.15809281 0.51319176 0.9997027
00000000: 513c 50be cf17 553f 6f1e 5d3f 4294 213f
00000010: c636 683f 93b4 4c3f c3bb d83e 5167 e63e
00000020: 5a23 02be 707f 7d3f 2d25 c1be 5794 f8be
00000030: 22ec 29be 0cb1 953f a925 2dbf 5b15 943f
00000040: 2d25 9fbf c0fc 34be 56a4 27bf 2dc5 743f
00000050: afa7 54be 188f 943e ffa5 ffbd 98b5 1fbf
00000060: e534 a9be 82bd 1e3f 2d30 d03e 339d 09bf
00000070: 040b 283f 729a b93e 08f4 15be c434 38bf
00000080: 42eb 22be 3ab9 09bd b6b6 68be 1e10 363f
00000090: 53b0 3d3f c13f 293e b3a2 d73e f3f0 f23e
000000a0: 4095 b23e 91a0 bf3e bedf 203f 4ac8 9abe
000000b0: 0518 bd3e 084e c8be 2364 533f 88b2 923e
000000c0: 5ce2 473f 907f a63e 7eb0 fb3e 69b7 1a3f
000000d0: aef0 eebe 3069 0cbf 5d7a 03bf bf12 2cbf
000000e0: e535 64bf 18be 5fbf 0b67 20be 95e3 04bf
000000f0: 5f51 1f3e 21f4 42bd a04b 2f3e 6a71 4abe
00000100: c790 b5bd a0a1 193f b758 ec3e e33b 003f
00000110: 698c b53d 4675 663f be3b ee3e cf1c 59bd
00000120: ad24 b93d eec7 f0be de7d b7be a0dd 303f
00000130: 2eaf 2b3e d21f 0abf 9432 a03e e9a5 143e
00000140: 8954 b63d 7d47 433f 099d 99bd 2975 963e
00000150: 2fe8 ae3e 9c46 063f 99ee 12bf 61af 7bbf
00000160: e839 4fbf 2394 423b 0860 4a3f 8632 593f
00000170: c2c5 213e 80d9 223f 47c3 dd3e 7b66 e7bd
00000180: 54cb 8d3e 3589 0b3d 8218 48bf ed27 343f
00000190: 01e2 573e fd72 af3e 79d0 c5be 8346 873f
000001a0: b678 2d3f 9e8c 6bbd b43c 103e a80b 923f
000001b0: 127e e9be 3e12 bbbe 3284 b7be cad8 f3be
000001c0: 4b52 d7be a09b f53e 6861 813f 9d39 303e
000001d0: 21ec 54bf a45e 63be ae2e 5abf b26c 123f
000001e0: b929 ff3e b0c8 ec3e cbd9 033f 0bf2 46be
000001f0: 91d9 f63e 2935 c03d 9d65 cfbc 3b83 83be
00000200: 4bfd d83c ac79 33be 475b 5c3e 6e36 a8bd
00000210: 19a9 febe 3a2f eebe 4d75 a53e 4c15 cbbe
00000220: 3942 313f 6716 98be 187a 52bf 4b5a 59bf
00000230: d8e1 8e3d aa51 f83e af8d bfbe 846b bd3c
00000240: 466a cabe 0953 f63e 2c4b 033f c936 ccbe
00000250: cb3a 523d a016 583e 37a7 08bd d31b ff3e
00000260: 12ec 493e 5b33 543e f99d 0a3f 122a 003f
00000270: ecee 103e a239 2abf ba08 86bd b550 e13e
00000280: c16a 66bf c177 053f e5f7 003f 4eeb 083f
00000290: 5507 a33f 55f7 113f 7f42 963f 7d81 dabd
000002a0: 49b4 5ebe 1a5a 0fbe 2f74 a2be d732 01bf
000002b0: a25d c13e 6b13 9bbe 0b86 f63e 3300 4e3e
000002c0: f351 df3e 0726 0bbe 6cba fd3e 00b4 88bc
000002d0: 4873 55be 4d10 cd3e 72a0 173f 7514 393f
000002e0: 5c3b 3ebd 318a 04bf a918 f3bd dcfa 69bf
000002f0: b33a 703e 1f2c 88be f7d5 f23e db3d a5be
00000300: d083 fa3d ec54 e1be c930 da3e d0c8 e2be
00000310: 96ae 8ebf fa81 c9bd 1a01 76bf 9414 76bf
00000320: 5a9e 76be f7a1 ccbe a239 d6be 14ea 343e
00000330: 8df0 65bf 4067 36bf 6851 b23e 3e92 1b3f
00000340: ad6a 8d3e f33f c33e 5c3d b0bc e096 cb3e
00000350: ce57 903f bad7 debe 978e 07bf e942 7a3e
00000360: b712 003c 09c0 623e 783d b33b 1435 9abe
00000370: 6b48 bcbe 2952 a8bb 79d6 fc3e 93f9 8b3e
00000380: 74f9 f73e 1634 4d3f 243e b6be 923a 19bd
00000390: b68a df3e 9ca0 243f 4764 ed3e f71c 48bf
000003a0: 2041 dc3e 02cf 47bf d488 d83e bbb0 3c3f
000003b0: db56 c63e 203f 86be 69f0 ebbe a8fd f0be
000003c0: 0113 0e3e 7cbb 2e3f 030c 4d3e a83d 9ebe
000003d0: 1b34 c7be 96f0 053f a169 583e 4d26 78bf
000003e0: 9612 5abf 1498 d63e 6dde dc3e 5f61 d43d
000003f0: 857e 8e3d 15e3 21be 8960 033f 84ec 7f3f

l1.bias f4 [8]
1.6174023 0.83889484 0.7816364 1.1076295 0.5091591 1.2962402 0.5535437 1.0940304
00000000: 0a07 cf3f d0c1 563f 5319 483f cec6 8d3f
00000010: 4058 023f 33eb a53f 0ab5 0d3f 3009 8c3f

l2.weight f4 [8, 8]
0.577781 -0.77724844 0.66006804 1.9011371 0.39642423 -2.2132185 0.543138 0.8450925
0.97932774 2.2109492 1.0368683 -0.93564594 -0.2958221 1.5214831 -0.65187603 1.1121491
0.7855747 -2.3014178 -1.2349976 1.205981 1.1987666 1.4672387 1.2718291 -0.31132212
0.153955 0.08027436 0.0037035567 -0.35238698 0.32087633 -0.5392311 -0.15097257 -0.2315826
0.1654548 -0.21285562 -1.0385797 -0.71750826 1.7749022 1.1783353 1.4830246 0.3295843
2.2343175 0.47265178 -1.2415422 1.4617095 -1.1180049 1.3797044 -0.7165084 1.3740538
-1.3136978 0.39835536 2.286139 0.7117185 0.86500293 0.6674167 1.4599413 1.9681455
1.4549594 -0.045508794 1.6715757 1.0045947 -0.5812726 0.07755812 -0.32295567 -2.179437
00000000: 75e9 133f c1f9 46bf 38fa 283f 7658 f33f
00000010: 1ef8 ca3e 5fa5 0dc0 180b 0b3f fb57 583f
00000020: 39b5 7a3f 3180 0d40 1ab8 843f 7e86 6fbf
00000030: ff75 97be f5bf c23f 59e1 26bf e75a 8e3f
00000040: 6c1b 493f 6e4a 13c0 6714 9ebf 965d 9a3f
00000050: 2f71 993f 7ace bb3f 4ccb a23f 9d65 9fbe
00000060: 61a6 1d3e e266 a43d 5fb7 723b 116c b4be
00000070: e749 a43e 0d0b 0abf 8e98 1abe fd23 6dbe
00000080: fc6c 293e d3f6 59be 2ef0 84bf 9fae 37bf
00000090: ff2f e33f b1d3 963f c0d3 bd3f 46bf a83e
000000a0: 0fff 0e40 6aff f13e dbea 9ebf 4c19 bb3f
000000b0: c91a 8fbf 279a b03f 186d 37bf ffe0 af3f
000000c0: 4027 a8bf 3cf5 cb3e 1a50 1240 2f33 363f
000000d0: d570 5d3f d2db 2a3f 5bdf ba3f 31ec fb3f
000000e0: 1c3c ba3f 6e67 3abd 31f6 d53f 8f96 803f
000000f0: 48ce 14bf cbd6 9e3d 725a a5be e57b 0bc0

l2.bias f4 [8]
0.24645619 0.5475443 0.5128545 -0.4025472 0.26410592 1.0266756 0.18070352 0.20937479
00000000: 035f 7c3e dd2b 0c3f 6f4a 033f ab1a cebe
00000010: e438 873e 1b6a 833f 580a 393e 5866 563e

l3.weight f4 [16, 8]
-1.7559812 0.64050704 -0.6264721 0.012616604 -0.4031271 0.7471121 -2.278389 -0.73393464
-0.7689467 -1.0106739 0.7677837 -0.39512482 -0.518234 -0.1448407 -0.30081347 0.39441785
0.65662295 -0.28718573 -2.540577 -0.03886015 -1.7750897 0.081209436 -0.7047607 1.04291
0.35677373 0.13657263 -0.8152548 -0.13707632 -2.9347456 0.24561311 0.061981473 -0.5497986
1.0782504 -1.3721575 0.5547464 -0.19181468 -1.2648451 0.5427756 -0.86990196 -1.5238221
0.490077 -0.4498154 -1.69988 0.18199714 -0.3524876 -1.3518707 0.63839895 -1.0548816
-2.3906453 -0.16091806 0.33225206 0.16723567 0.054548956 -2.1407833 0.56313896 -1.7061635
0.902505 -1.5720977 0.28823984 -0.38640374 -2.2942445 0.22431423 -1.9030342 0.81293845
0.022882735 -0.4952904 0.30395678 -0.1404216 0.33992645 -0.71772474 0.007938541 -1.5304667
-1.7606372 0.7839475 -1.8214581 -0.3415251 -0.28539035 -1.2283579 0.6651203 -2.2374983
1.0609854 -2.3660004 0.29050094 0.18383211 -0.3207464 -1.8285037 0.27794755 -1.4372597
-1.3250309 -1.5498035 1.1623454 0.00039438086 0.874881 -1.4554422 -0.28600603 -1.9749641
-2.102562 -0.04139479 0.12880866 0.06353489 -0.16566922 0.60275096 -0.2291055 -2.1739569
-1.0233563 0.8414068 -2.3916469 -0.22803704 -2.5602202 0.27007118 -2.2747102 0.80075955
-2.5682068 0.6797715 -2.1380448 -0.10870072 -2.3486214 0.5081895 0.6467786 -1.0513842
-1.103477 -0.5583806 0.73944205 0.05209413 -1.2295325 0.45756072 -2.1964872 0.5152952
00000000: fec3 e0bf 45f8 233f 7a60 20bf dfb5 4e3c
00000010: ad66 cebe bd42 3f3f 20d1 11c0 24e3 3bbf
00000020: b1d9 44bf c35d 81bf 798d 443f cd4d cabe
00000030: fcaa 04bf 1f51 14be 3904 9abe 23f1 c93e
00000040: 7118 283f 020a 93be d098 22c0 d22b 1fbd
00000050: 2436 e3bf 2251 a63d 326b 34bf 137e 853f
00000060: 0cab b63e b2d9 0b3e 8ab4 50bf bc5d 0cbe
00000070: dfd2 3bc0 0182 7b3e 49e0 7d3d 9abf 0cbf
00000080: 1c04 8a3f dba2 afbf dc03 0e3f 116b 44be
00000090: 72e6 a1bf 57f3 0a3f e5b1 5ebf 9a0c c3bf
000000a0: 5feb fa3e 344e e6be ab95 d9bf 755d 3a3e
000000b0: 4179 b4be 190a adbf 1d6e 233f 5c06 87bf
000000c0: 5500 19c0 b4c7 24be f11c aa3e d43f 2b3e
000000d0: ba6e 5f3d 9802 09c0 e029 103f 9163 dabf
000000e0: 910a 673f 7f3a c9bf 2c94 933e b6d6 c5be
000000f0: e7d4 12c0 a1b2 653e a096 f3bf bc1c 503f
00000100: 9374 bb3c b496 fdbe 39a0 9b3e aeca 0fbe
00000110: d70a ae3e cfbc 37bf a710 023c 55e6 c3bf
00000120: 8f5c e1bf c9b0 483f 8a25 e9bf 61dc aebe
00000130: af1e 92be d53a 9dbf 5345 2a3f 2c33 0fc0
00000140: 5fce 873f 8d6c 17c0 8abc 943e 7c3e 3c3e
00000150: df38 a4be 690c eabf 244f 8e3e 20f8 b7bf
00000160: 9d9a a9bf f65f c6bf bcc7 943f e7c4 ce39
00000170: 34f8 5f3f ee4b babf 626f 92be a0cb fcbf
00000180: 6090 06c0 958d 29bd 6be6 033e 951e 823d
00000190: 31a5 29be e34d 1a3f a29a 6abe 1c22 0bc0
000001a0: 57fd 82bf 7066 573f be10 19c0 8b82 69be
000001b0: a6da 23c0 c546 8a3e da94 11c0 94fe 4c3f
000001c0: 805d 24c0 8105 2e3f bad5 08c0 7c9e debd
000001d0: d04f 16c0 b518 023f 4893 253f c293 86bf
000001e0: bc3e 8dbf 08f2 0ebf 134c 3d3f a860 553d
000001f0: 5261 9dbf 6645 ea3e 3f93 0cc0 63ea 033f

l3.bias f4 [16]
0.20046367 0.16706842 -0.017625188 -0.1364951 -0.50469 -0.10124093 -0.27774173 -0.2947186
0.1413919 -0.14515634 -0.10985511 0.11776384 0.19219096 0.042546533 0.18263935 -0.3326379
00000000: 5946 4d3e fc13 2b3e b362 90bc 5fc5 0bbe
00000010: 5d33 01bf 6857 cfbd 2a34 8ebe 5be5 96be
00000020: 0ac9 103e dda3 14be b7fb e0bd 2b2e f13d
00000030: b5cd 443e 4645 2e3d cf05 3b3e 844f aabe
