data.pth (torch, 7959 bytes, 6 tensors)

l1.weight f4 [8, 109]
000000 e6 5d c6 3e 39 2c 41 3f cd f6 41 3f bc e4 e4 be
       0.38743514 0.75458103 0.75767213 -0.4470576
000010 ee 3a cd be 17 91 62 3d d0 f9 07 3f 7e 92 62 3f
       -0.40084022 0.05531415 0.5311556 0.8850478
000020 c8 cf bb 3e 80 2d 72 bf 1a d8 19 3f 89 e1 67 3f
       0.36681962 -0.9460068 0.6009537 0.90578514
000030 1f 9f f6 3e 3f 05 c0 3e 80 62 02 3f bf 6a aa 3e
       0.48168275 0.37504002 0.5093155 0.33284566
000040 a9 21 93 3f b0 4a 64 3f e3 b3 08 3f 56 34 a0 be
       1.1494647 0.89176464 0.53399485 -0.3128993
000050 2e 8e ea 3e 81 fc e3 be 3a 90 e6 3d 73 8f 82 3e
       0.458116 -0.44528583 0.11257978 0.25500068
000060 8c b6 5d bd fb d6 64 bb 1b 50 25 bf 26 a8 37 bf
       -0.05412917 -0.0034918177 -0.64575356 -0.7174095
000070 0c 89 42 3f 00 b8 27 bf 0c 67 b1 be 1c 4a 0c be
       0.75990367 -0.65515137 -0.3464893 -0.13700145
000080 1e 56 de 3e ac c5 be 3e 69 ce 19 3e a0 10 e7 3e
       0.43425077 0.37260187 0.15020145 0.4512987
000090 a4 14 1d be b3 0f fb bd 26 20 ec 3e ec 67 c1 be
       -0.15339905 -0.12258854 0.46118277 -0.377746
0000a0 1f 0d 0f 3f ba e3 a0 be e9 6c 1b be af 8d fc 3c
       0.55879396 -0.31423742 -0.15178265 0.030829279
0000b0 b1 99 01 3f 6e 3c 92 be 1e f4 a0 3f 12 83 e4 3e
       0.5062514 -0.2856173 1.2574499 0.4463125
0000c0 33 f3 8d 3f 63 89 c3 bd 6a cf 1d bd 83 8a 41 3f
       1.1089844 -0.09547689 -0.038527884 0.7560198
0000d0 d7 5a 52 3f 98 e5 3e 3f 10 00 48 3f e2 a5 64 3f
       0.8216986 0.7456908 0.78125095 0.8931562
0000e0 c6 22 55 bf 94 c0 98 bf bb f9 4b 3e 2f 6c d8 3e
       -0.83256185 -1.193377 0.19919483 0.42270038
0000f0 d4 a5 0e bf d6 8f bf bd b2 d9 b5 bf f2 5b b8 bd
       -0.55721784 -0.093536064 -1.420706 -0.09001912
000100 32 d8 de 3e f7 39 8a be db 20 26 3f b8 7b 11 be
       0.4352432 -0.2699735 0.64893883 -0.14207351
000110 38 a7 15 bf af 6e e4 be bb 23 92 be f1 a6 a1 3f
       -0.5845828 -0.44615695 -0.28542885 1.2629071
000120 75 ee d5 3e 56 4c 53 3f 88 c0 51 3f 08 90 81 be
       0.4178349 0.82538354 0.81934404 -0.253052
000130 ee 49 5d 3e e6 6e 7d 3e 35 9a 09 bf b0 12 bb be
       0.21610233 0.24749336 -0.53750926 -0.36537695
000140 a7 6e fd be 2d 5e 77 be 6c 28 ee 3e b4 e3 fa bc
       -0.49498484 -0.24157019 0.46515214 -0.030626155
000150 a3 f4 f1 3e 8f 26 93 be 71 88 20 3f 4d 1a 96 3f
       0.47256956 -0.28740355 0.62708193 1.1726776
000160 b0 a8 05 be 1a c7 66 3f f2 34 3c 3f 1a 30 99 3f
       -0.1305263 0.90147555 0.7351829 1.1967804
000170 de 79 2b 3f 75 c7 ff be 70 4a ba be 29 69 b5 be
       0.6698283 -0.4995686 -0.36384916 -0.35431793
000180 b4 d2 79 3e 85 c2 a7 3e 90 08 66 bf 5c 60 50 3f
       0.24396783 0.32765594 -0.89856815 0.8139703
000190 bf bc ce 3e 9e 28 35 be 6e 5c 80 bd 58 46 e8 be
       0.40378377 -0.17691275 -0.062676296 -0.45366168
0001a0 5b f0 b2 3e da 09 9e 3e 22 70 d5 3e 02 4d 64 3f
       0.34949002 0.3086689 0.41687113 0.89180005
0001b0 10 e1 f3 be ab 00 2f 3f 2e 62 20 be 71 6f 4d bd
       -0.47632647 0.68360394 -0.15662453 -0.050155107
0001c0 0d 70 0b bf ac 6e 6f 3f 48 48 00 3f c1 b9 83 3e
       -0.5446785 0.93528247 0.5011029 0.25727656
0001d0 8c 78 4b 3f 13 47 fd 3e 5f 5b 50 bf c8 73 59 3f
       0.79480815 0.49468288 -0.8138942 0.84942293
0001e0 b0 a0 60 3f 1e 33 13 3f 83 db 3f 3f 55 d1 ae 3e
       0.8774519 0.57499874 0.74944323 0.34144083
0001f0 71 07 44 3f 35 d6 7f 3e 38 08 ab bc 28 63 7d 3e
       0.76573855 0.24984057 -0.020877942 0.24744856
000200 47 5a e3 3e 60 7f fe 3e 2a a8 2f bf 4a 3e aa 3e
       0.44404814 0.49706554 -0.68615973 0.33250648
000210 37 d3 52 3f 2c 38 84 3f b5 72 83 3e 40 95 2c bf
       0.8235354 1.0329642 0.25673452 -0.6741524
000220 f0 43 32 bf d2 6b 7f 3f 12 80 51 3f de 1d 3d 3f
       -0.69634914 0.99773896 0.81836045 0.738737
000230 c7 a1 40 3f 24 42 df 3e 64 7d 1b 3f 46 bf 85 3e
       0.7524685 0.4360515 0.60738206 0.26122493
000240 b9 44 95 3e 74 b4 67 3f d0 54 1c bf e0 2b 00 3f
       0.29153994 0.90509725 -0.61066914 0.5006695
000250 54 04 2e 3d e1 3c 86 3e 2d 90 2c bf 4f 9e 2e 3f
       0.042484596 0.26218322 -0.67407495 0.6821031
000260 b9 ae 0b bf 0d be 02 3e c8 b5 21 bf b0 71 9d 3f
       -0.5456348 0.12767811 -0.63168 1.230032
000270 36 33 66 3e bb 8a 65 3d 70 41 51 be 44 12 8b 3e
       0.22480473 0.056040507 -0.20435119 0.27162373
000280 b4 ec 47 3f 55 a9 69 3f f2 e3 4a 3f dc 63 46 3f
       0.78095555 0.91274005 0.79254067 0.77496123
000290 77 1a da 3e 7a bf ec 3e 47 a6 20 bf e8 88 9e 3e
       0.42598316 0.46239835 -0.6275372 0.30963826
0002a0 47 31 5b 3f c0 47 07 bf 70 e4 2f bf fc 75 cd bd
       0.85622066 -0.52843857 -0.6870794 -0.10032269
0002b0 5d 3b 49 3e 23 34 59 3e 70 7a 49 3f 3f ba 11 3f
       0.19651552 0.21211295 0.7870245 0.56924814
0002c0 74 59 1e 3f 34 c2 f8 be 64 83 72 3f 2d 53 d3 be
       0.61855245 -0.48585665 0.94731736 -0.41274396
0002d0 07 63 93 3f ac ce 9d 3e 72 75 54 3f c7 cd 58 3f
       1.1514596 0.3082174 0.8299171 0.8468899
0002e0 d8 0b 02 3f b3 14 78 3f 12 95 86 3f b4 20 81 be
       0.5079932 0.96906585 1.0514243 -0.25220263
0002f0 50 a2 3b bf 12 1d d1 be 00 3e 60 3f 73 a4 f2 3e
       -0.73294544 -0.4084249 0.87594604 0.4739109
000300 34 a4 a5 3e 46 27 02 3f be 86 2d 3f b5 63 42 3f
       0.3235184 0.50841177 0.67783725 0.7593339
000310 77 cc c8 3f c7 6d 16 3f e1 08 89 3f f8 12 27 3f
       1.5687398 0.58761257 1.0705835 0.6526332
000320 6a d4 98 3f 25 a0 df 3e 52 13 ee be 6b a2 2f bf
       1.1939824 0.43676868 -0.46499115 -0.68607205
000330 9e c5 0b 3f dc 66 d6 3e 62 4c 97 3e f1 b8 fa 3e
       0.54598415 0.4187535 0.29550463 0.48969224
000340 f5 67 02 3f 5d de 45 3e d9 6b 00 bf 2a d7 8d be
       0.50939876 0.19323106 -0.5016456 -0.2770322
000350 9b fb f4 be ed 9f 9f 3e 66 4e 04 3f 77 d1 06 3f
       -0.4784821 0.311767 0.51682127 0.5266337
000360 d4 e6 e9 be 0d 93 e8 be 46 f0 a9 be 3a e9 1c bf
       -0.4568392 -0.4542469 -0.33191127 -0.61293375
000370 4e 19 ef be 75 c3 97 3f 3d 3b 59 bf 03 b6 ec 3e
       -0.46698993 1.1856524 -0.84856015 0.46232614
000380 6b d3 c4 bd 85 0b 05 3f 1e 3b ab 3e 63 b1 dc 3f
       -0.09610637 0.519707 0.3344354 1.7241634
000390 cf 13 2c 3d 72 e0 03 3f d9 a7 d5 3e 1f e0 99 3f
       0.04201108 0.5151435 0.4172962 1.2021521
0003a0 69 dd 2e bf 97 07 95 3f 76 75 ff be af 3a 3e bf
       -0.68306595 1.1642941 -0.49894303 -0.74308294
0003b0 cf 39 48 bf b6 79 43 3e 2a 25 c9 3e fd ce 24 3f
       -0.7821321 0.19089398 0.39286166 0.6437834
0003c0 f7 5b 88 3d 94 f0 09 bf ee d5 1d 3f da fa 01 3f
       0.06658166 -0.5388272 0.61654556 0.50773394
0003d0 9b 4e 06 3f 96 a8 6b 3f 44 73 bb 3e 58 b2 94 3f
       0.5246369 0.92054117 0.36611378 1.1616926
0003e0 5d 27 53 3f 75 d3 d8 3e a4 0c 8f 3e b3 b7 96 be
       0.8248194 0.4234883 0.27939332 -0.29437026
0003f0 fa ad 65 bd bb 3d 47 be 51 53 09 bf 96 87 68 bf
       -0.05607412 -0.19457142 -0.53642756 -0.9083189

l1.bias f4 [8]
000000 73 d2 71 3f b2 0d 2f 3f 6d ce 89 3f 04 6b 99 3f
       0.94461745 0.6838027 1.0766121 1.1985784
000010 a6 00 47 3f 22 18 f5 3e a1 6a 66 3f 58 9b 71 3f
       0.77735364 0.47869974 0.9000645 0.9437766

l2.weight f4 [8, 8]
000000 a1 4c 96 be ac 35 b2 bd 40 d1 5e bd 88 85 a1 bd
       -0.29355338 -0.08701643 -0.054398775 -0.07886797
000010 c1 0e 8d be 86 64 67 3e a0 00 2a bc 65 73 85 be
       -0.2755032 0.2259694 -0.010376126 -0.26064602
000020 68 df 08 bf 58 e8 c8 bf 14 09 b6 3f 32 e8 ae 3f
       -0.5346589 -1.5695906 1.422152 1.366461
000030 44 f4 28 3e ca 33 aa 3f 22 3f b0 3f bd 4c 1d 3f
       0.1649943 1.3297055 1.3769267 0.6144522
000040 af 8d 4d 3f cb df 67 3e 69 2b 2b 3f 32 b9 ce 3f
       0.80294317 0.22643964 0.66863114 1.6150267
000050 97 fb 98 bf 42 99 9d bf fc 09 83 3f cf 0b 15 40
       -1.1951779 -1.2312396 1.0237422 2.3288457
000060 43 7f 4f be 20 cc 67 3d 4e d2 86 be aa a8 12 be
       -0.2026339 0.056591153 -0.26332325 -0.14322153
000070 26 5e 17 be 10 23 1f be 34 59 9f be c0 e3 08 3e
       -0.14782009 -0.15540719 -0.31122744 0.1336813
000080 7c 59 80 3f d5 ad f0 3f ae 1f cd 3f a4 9e 90 bb
       1.0027308 1.8803049 1.6025293 -0.0044134427
000090 3d 2f 42 3f 89 17 64 bf 5a ec b9 bf b7 fc 04 3f
       0.7585333 -0.8909841 -1.4525254 0.5194811
0000a0 33 dc 93 3f 68 b0 1a 3f d1 40 77 bf 14 b9 dd 3e
       1.1551574 0.60425425 -0.96583277 0.43305266
0000b0 7c f9 1c 3f f4 db 7a 3f 22 75 a9 3e 36 6a ca be
       0.6131818 0.9799187 0.33097178 -0.39534158
0000c0 95 05 cc bf 78 c0 6f 3f 89 40 d0 3f 89 16 e3 bf
       -1.5939204 0.9365306 1.6269695 -1.7741252
0000d0 92 f0 16 40 98 08 f1 3e ea d7 1f 40 c0 5b c4 3e
       2.3584332 0.4707687 2.4975533 0.3835125
0000e0 18 15 a1 3f d5 6c 1f 3f fb 67 90 bf 66 92 dc 3f
       1.2584562 0.6227544 -1.1281732 1.7232177
0000f0 b2 04 b6 3f 19 68 08 40 6d 3a 42 be 2c 94 39 bf
       1.4220183 2.1313536 -0.189676 -0.7249172

l2.bias f4 [8]
000000 26 bd 96 be bb 07 3d 3f 29 30 18 3f e0 7d 39 bd
       -0.29441184 0.7383992 0.59448487 -0.04528606
000010 34 51 44 3f d3 c6 2c bd 8d 4a 37 3f 25 63 a8 bc
       0.76686406 -0.0421818 0.7159813 -0.020555088

l3.weight f4 [16, 8]
000000 b6 e9 d8 bd 74 ce 40 be 0c 76 f7 3e fb fa 7c be
       -0.10591452 -0.18828756 0.4833225 -0.24705116
000010 26 5e 97 3f be 40 45 c0 ba a2 26 bf 79 90 4d c0
       1.1825607 -3.0820765 -0.6509205 -3.211943
000020 8e 6b 78 3e 12 93 bd be 0c 25 49 3e 68 71 35 bd
       0.24259779 -0.37026268 0.19643039 -0.044297606
000030 0f 67 d4 be 60 32 30 be ab 9e c6 bd 68 7c 88 be
       -0.41484877 -0.17206717 -0.09698232 -0.26657414
000040 b3 f9 7c be 0b e3 8a bf 6e 9a 14 bf bc 47 b8 3d
       -0.24704628 -1.0850538 -0.5804814 0.08998057
000050 60 4d 7b 3e ac 50 0a 3f 48 30 0b c0 92 d5 20 3f
       0.24541235 0.54029346 -2.1748219 0.6282588
000060 0e 80 3a 3e d6 0e e3 3e 80 d2 13 bf 37 44 61 be
       0.18212911 0.44347256 -0.5774307 -0.21998678
000070 bf 70 44 c0 06 1b 9e 3d 47 3e 98 be fb 8c b1 3e
       -3.0693815 0.07719998 -0.29735014 0.34677872
000080 50 e7 97 3c 37 7d 32 3e 64 f3 06 c0 af 7e 9b 3e
       0.018542916 0.17430578 -2.1086054 0.3037009
000090 e2 c7 cc bf 9b a6 29 bf ed 0c 4f 3f 7c e0 6b be
       -1.5998499 -0.66269845 0.808791 -0.23034853
0000a0 00 d8 c7 3c df ed 4e be ab f2 28 c0 f1 e4 89 be
       0.024394989 -0.20207928 -2.6398113 -0.2693248
0000b0 5c 3f 81 bf eb 34 37 3f ba e5 22 bf b4 14 30 3f
       -1.0097461 0.7156512 -0.63631785 0.6878159
0000c0 8f 68 89 3e 1a 93 6f bf ac 59 2a bf 3f 2c a9 3e
       0.26837584 -0.93583834 -0.6654308 0.3304157
0000d0 53 14 0e 3f df f6 f9 bf 86 50 10 3f d7 aa a2 bf
       0.5549976 -1.9528464 0.5637287 -1.2708386
0000e0 e4 08 dd bd 3f e7 8a 3f 34 df 31 be 6a 29 f8 bd
       -0.107927114 1.0851821 -0.17370301 -0.12117274
0000f0 b8 26 c7 bf 0f c3 fe bf a4 3b c5 3d 67 94 54 bf
       -1.5558691 -1.9903277 0.09630516 -0.83038944
000100 46 7a 4f 3e 8b 0e 75 bf e0 cf cb bf df c5 93 3e
       0.20261487 -0.95725316 -1.5922813 0.288619
000110 20 45 b9 3c 7e 2a a9 3e a7 12 d0 3e f3 ae 24 be
       0.02261597 0.3304023 0.4063923 -0.16082363
000120 7e 1c 76 3e fd b1 5f 3e 5d f0 a6 be 97 c1 a2 3e
       0.24034306 0.21845241 -0.32605258 0.31788322
000130 4d 75 31 bf f7 23 20 c0 66 9c 5b 3f 4f a3 4a c0
       -0.6931961 -2.5021951 0.8578552 -3.1662176
000140 b2 94 77 be 34 95 18 c0 2d 00 18 c0 34 87 91 3d
       -0.24177817 -2.3841066 -2.3750107 0.07105866
000150 ec 28 76 3e 8c 0f 13 3f 44 85 3b bf 18 1a 48 3f
       0.24039048 0.574456 -0.7325022 0.78164816
000160 00 c7 1f bd ab 25 43 c0 26 fe c4 be 04 0e 5e be
       -0.03900814 -3.049174 -0.3847515 -0.21685034
000170 c6 19 8c 3f 5d c8 b8 3d 49 b2 a6 be 46 84 c7 be
       1.0945365 0.09022591 -0.32557896 -0.38968104
000180 e3 fc 81 3e 72 14 06 3f cc 54 8d 3f 32 e8 25 3e
       0.2538825 0.5237495 1.1041503 0.16201857
000190 4a 0a f1 be 0d 08 ce bf 93 8e 0d be ce 7e 19 c0
       -0.47078162 -1.6096207 -0.13823919 -2.3983645
0001a0 50 7d 8b be 87 f1 80 bf 11 52 12 3d dd 70 a6 be
       -0.27244043 -1.0073708 0.035722796 -0.32507983
0001b0 25 8f 46 bf ff 70 b8 be c2 83 4c 3f 9e 80 99 bf
       -0.7756217 -0.3602371 0.79888546 -1.1992376
0001c0 68 b4 06 3d 63 25 1f bf bb 57 58 3f 64 22 9a bd
       0.032886893 -0.6216642 0.84508866 -0.07526091
0001d0 9a ec 24 3f 11 e7 6a bf 9a 56 0c c0 5b 0a dd be
       0.64423525 -0.9175883 -2.1927857 -0.43171963
0001e0 ca 5b 96 be 14 3b 8a bd 2a 12 07 3f bc 39 53 be
       -0.29366904 -0.067495495 0.5276209 -0.20627493
0001f0 19 99 55 bf 28 9e e7 3e fa f9 0d c0 90 6e da bd
       -0.83436733 0.4523785 -2.2183824 -0.106656194

l3.bias f4 [16]
000000 c7 e7 2a 3f f2 8e 96 be 09 7f fd 3d b9 24 cd bd
       0.66759914 -0.29405934 0.12377746 -0.1001677
000010 52 58 81 be a9 65 51 3d 0e 4a 0a bf c0 5f ee be
       -0.25262696 0.05112234 -0.5401925 -0.46557426
000020 dc b8 61 bd c6 b2 c0 3e 98 a7 2b 3d 65 38 a4 3d
       -0.055107936 0.37636393 0.041907877 0.08018569
000030 58 12 9f be 85 3d 8d be e4 7d 95 bd c0 71 1d 3e
       -0.31068683 -0.27585998 -0.07299402 0.15375423
