data.pth (torch, 6231 bytes, 6 tensors)

l1.weight f4 [8, 76]
00000000: 2b92 593e dd99 4d3e de65 e7be fdbe 03bf
00000010: 50af c1bd ec55 db3e a82b 343f 8708 5fbf
00000020: cbc7 6b3e 13b3 ff3e 8479 5f3e dc48 023f
00000030: 1023 c23e b1f5 ecbd 3dcf a2be c702 913d
00000040: 46b6 8b3d d453 5a3d 007a 8f3e 5e84 f33c
00000050: 539c acbe 24fd 94bd 99e7 fa3d 44be 52be
00000060: 94fa 643e e8d8 4fbd 6965 b7bd eb83 aa3e
00000070: 9e4e 233d 85e4 663f 3af2 573e c1eb 143f
00000080: 99fe fb3c 3aa6 023f 6949 c23e 4a6c c53e
00000090: c987 b03e 6000 083e b4dd 96be aefe a53c
000000a0: 5ae4 cebc 31ff 03bd 4cd9 a3be 58c8 a4bc
000000b0: be7a fa3e bb26 c1bd 78bb d63e 23c2 41be
000000c0: b99f f93d 2be6 0fbf 54da c3be dff5 003f
000000d0: 4a47 9c3e 0962 bb3e b255 8a3e dfaf 9b3d
000000e0: a1aa 6bbf 7333 713d ee7b 83be 4bf0 283e
000000f0: 1c1f 993e ca59 88bb 264e 25bf 6009 e53e
00000100: 0472 be3e 2537 203f 4ad8 cfbe a7b2 8a3e
00000110: ecaf 6fbe 0726 56bd 8522 b83e 6df3 8b3d
00000120: f56e b13e 9004 b4bd 57bc 85bf 6a34 763d
00000130: c8bd 813e 49fa 8a3e 3c73 423e 1095 143c
00000140: d57b 53be f6b3 82be 49ba ffbe 2bb3 8c3c
00000150: 140d b23e bee9 0a3f 16a8 d33e eac5 ffbe
00000160: 66ba ffbe 7f5e 913f 8724 f83e a82b b3be
00000170: 5594 ee3e 19fc 373f 9d13 823e aa79 53bd
00000180: 3d85 c43e 857d 893f 8645 6abe 93a0 e2be
00000190: d643 84be fea6 3d3e 81d9 073f a120 b5be
000001a0: 8dde 1a3f fac6 ffbe 5584 a7be b755 18bf
000001b0: b783 a13e 701d 7c3d d673 fa3e 9f9e ef3e
000001c0: 0cec db3e f3bf 003f f04e 08bf a2b2 a4be
000001d0: 9e3d 95bd f51f ed3d 9372 bd3e e0cc d5be
000001e0: 6bf9 0bbf 71bc 1e3d 9c39 97bd def2 4d3e
000001f0: 8a7e 193d 1838 1a3c b0fe 1f3e a4c5 5cbe
00000200: a14a 893e 94da 013f c692 f03e c9c0 77be
00000210: f56c 8d3f 50d7 293d 907e 2e3e fc28 13bf
00000220: d9b8 8abe 3b8c 453e 44b2 f7be 6850 c6bc
00000230: 398e a43d 7f67 debc 1361 8d3e f6ca 963e
00000240: c4fc 13bf 68d1 d83e 4299 8d3e dede 623e
00000250: 4f57 91be 404a b3bd e448 80bf c588 ea3e
00000260: 0b9b 933e 8ccf c93e 35e9 0e3b a8e1 e2bd
00000270: 155d d4be 48d2 a93e 9c95 3abf 0716 b8be
00000280: bb81 2f3e 4766 d03e 88df 893e 2c80 84bc
00000290: 24fa 003e 5ae7 61bf 9e73 efbe 11a8 9bbe
000002a0: 9726 0a3f 0711 243f ee4c 9f3e 66bd 6cbd
000002b0: 7c6b 91be 346a 46bf 17fa 3dbe 51ae 33be
000002c0: 001d 9f3e 7569 61bd 6628 c6bd 3d59 a53e
000002d0: f3e8 23bf c83c 623f 9c67 a53e 40cf 1cbf
000002e0: f059 cc3e bcbc 71be 5420 e33e ee1d ef3e
000002f0: 058c e13e b711 b13d 70ae cfbe da69 c0be
00000300: d555 d5be bfa0 1a3e 29e3 123f 8542 c5be
00000310: 8c89 90bc 3f1f e2bd c371 d73e 18de abbd
00000320: 2655 cd3d c1de 2fbe 6ed1 d0be f97d 9bbc
00000330: b170 a23e 8fba c13e 611d f93e 9c19 f1be
00000340: 22e2 353f 9acf e63d 4e1d 48be 7888 2bbf
00000350: bd80 61be 9b45 e4bc 4b9c 54bf 5c2d 6abe
00000360: 24a1 453e b379 263f 9309 e53d 9410 f83d
00000370: b03c 03bf a4a3 9bbe 9b4a 693e b703 4d3e
00000380: 0727 153e d4dc fcbc 7248 84bf c992 9ebc
00000390: 4032 b0be cad6 6fbe 54e5 223f 9c70 cebe
000003a0: 9292 2dbf 2804 f3bd 3f3a c3be 8da4 973f
000003b0: b661 46be e304 d6be d802 a8be a896 6a3f
000003c0: ae21 563f 9967 623f 219f 10be a1e3 a03e
000003d0: d9ed da3d bec8 ec3e 8e83 8ebe b30e 32be
000003e0: 9041 79be f15c 423f 13e0 b9be 3be1 853f
000003f0: b2c0 463b 1dd2 a2be 79d7 b73e 863f 92bc
0.21247165 0.20078225 -0.45194906 -0.514633 -0.09457266 0.4283899 0.70379114 -0.87122387
0.23025434 0.4994131 0.21823698 0.50892425 0.37917376 -0.115702994 -0.31798735 0.07080608
0.06821875 0.0533026 0.28022766 0.029726204 -0.33713016 -0.07274845 0.12251205 -0.20580393
0.22361213 -0.050743967 -0.08954889 0.3330377 0.039869897 0.90192443 0.21088496 0.5817223
0.03076105 0.5103489 0.37946633 0.3855918 0.34478596 0.13281393 -0.2946602 0.020263042
-0.02525537 -0.03222579 -0.32001722 -0.020115063 0.4892177 -0.094312154 0.41939902 -0.18921714
0.12188668 -0.56210583 -0.3825251 0.5037517 0.3052314 0.36598232 0.27018505 0.07601904
-0.92057234 0.058886956 -0.25680488 0.16497914 0.29906547 -0.0041610943 -0.6457237 0.44733715
0.37196362 0.62584144 -0.40594703 0.27089426 -0.23406953 -0.05228236 0.35963836 0.06833539
0.34654966 -0.08789933 -1.0448102 0.06010858 0.25340104 0.27144077 0.18989271 0.009068742
-0.20652707 -0.25527924 -0.49946812 0.017175278 0.34775603 0.5426291 0.41339177 -0.49955684
-0.49946898 1.1356963 0.48465368 -0.34994245 0.46597543 0.71869045 0.2540559 -0.0516297
0.38382903 1.074143 -0.22878084 -0.44263133 -0.25833005 0.18520734 0.5306626 -0.35376456
0.60495836 -0.49956495 -0.3271815 -0.5950579 0.31545803 0.06155151 0.489165 0.46800706
0.42953527 0.5029289 -0.5324545 -0.32167536 -0.07287143 0.11578361 0.37001476 -0.4175787
-0.54677457 0.03875393 -0.07384035 0.20112178 0.037474193 0.009412788 0.156245 -0.21559769
0.2681475 0.5072415 0.4698698 -0.24194635 1.1048876 0.041465104 0.17040467 -0.5748441
-0.27094153 0.19291775 -0.48378193 -0.024208263 0.08034939 -0.02714896 0.27613124 0.29451722
-0.57807565 0.42347264 0.2765599 0.2215533 -0.28386924 -0.087543964 -1.0022244 0.45807472
0.28829226 0.39416158 0.0021806483 -0.11078197 -0.41477266 0.33168244 -0.72884536 -0.35954306
0.17139332 0.4070303 0.26928353 -0.016174398 0.12595421 -0.8824364 -0.46767896 -0.30401662
0.53965133 0.6408848 0.3111338 -0.057797812 -0.28402317 -0.77505803 -0.18552433 -0.17546965
0.31076813 -0.055032212 -0.09675674 0.32294646 -0.6402733 0.88373995 0.3230561 -0.6125374
0.39912367 -0.23607153 0.44360602 0.46702522 0.4405214 0.08645957 -0.40562773 -0.37580758
-0.41667047 0.15100382 0.5737787 -0.38527313 -0.017643712 -0.11041116 0.4207898 -0.083919704
0.100260064 -0.17174818 -0.40784782 -0.018980967 0.31726602 0.37837645 0.48655227 -0.4708985
0.71048176 0.112700656 -0.19542429 -0.6700511 -0.22021766 -0.027865222 -0.83050984 -0.22868866
0.19299752 0.6502945 0.11183467 0.12112537 -0.51264477 -0.30398285 0.22782366 0.20020948
0.14565669 -0.030867018 -1.0334609 -0.019357102 -0.34413338 -0.2342178 0.63631177 -0.4032029
-0.67801774 -0.11866027 -0.38130376 1.1847092 -0.19373211 -0.41800603 -0.3281467 0.91636133
0.8364514 0.8843933 -0.14123203 0.31423667 0.10689897 0.46246904 -0.27834743 -0.1738842
-0.24341416 0.7592307 -0.36303768 1.045936 0.0030327258 -0.3180093 0.3590658 -0.017852556

l1.bias f4 [8]
00000000: 2f7c 693f dab6 ff3e a870 723f aa56 1e3f
00000010: 198e 863f 75b6 00be 4acc 933f 2bb7 323f
0.91205114 0.49944192 0.9470315 0.6185099 1.0512115 -0.12569602 1.1546719 0.6981074

l2.weight f4 [8, 8]
00000000: 6a3e b23d 6df5 08be edd2 81bf 72f5 a8bf
00000010: 914e cf3f ce16 4e3d b144 823f cd71 553f
00000020: 5e33 fc3e 2580 e73f 6d59 e43f a15a 223f
00000030: 892c 263e d01c a6bd 8e54 0140 ebc2 82bf
00000040: 8983 d63f c9db 4abf fd2a 993f 51d6 62bf
00000050: e490 85be f004 3e3d 0428 a43f 8ea6 84be
00000060: b8fb a73f ce73 39bf 4547 563d b666 23bf
00000070: baca b43f 465b 06be 8102 393f cb97 32bf
00000080: 49ff b33f 97ad a33e 192f c83f 7aaf 24bf
00000090: 0748 dc3f 527f ae3e 72aa 8fbe 3aeb 7cbf
000000a0: 8142 a1bf 15b3 9c3f e6b4 ec3e 5f77 fe3f
000000b0: 95de be3f 8b44 e23d 440a aabf 7955 473f
000000c0: 829d 4e3f cbf8 f4bf 4f54 253e 2e06 813f
000000d0: b842 47be a8a7 2f3e cf6d 9a3d e85b f03f
000000e0: 3ae2 2fbf a651 763f 9182 8abf 56ad 933f
000000f0: 852a 8f3f 0436 9abd 1fb9 543f 6dd5 983f
0.08703311 -0.13374873 -1.0142494 -1.3199904 1.6195852 0.050314717 1.0177213 0.8337677
0.4925794 1.8085982 1.783979 0.6341954 0.16227926 -0.08110964 2.0207858 -1.0215734
1.6758891 -0.79241616 1.1966244 -0.8860827 -0.26087105 0.046391428 1.2824712 -0.2590832
1.3123693 -0.7244233 0.05231406 -0.638286 1.4124367 -0.13120756 0.72269446 -0.6976287
1.4062282 0.31968376 1.5639373 -0.64330256 1.7209481 0.34081513 -0.28059727 -0.9879643
-1.259842 1.2242151 0.46231765 1.9880179 1.4911677 0.1104823 -1.3284383 0.77864796
0.8070909 -1.9138426 0.16145442 1.0080011 -0.19459045 0.171538 0.075404756 1.8778048
-0.6870457 0.96218336 -1.0821096 1.1537273 1.1184851 -0.07529834 0.8309497 1.1940132

l2.bias f4 [8]
00000000: 5757 443f 30be 433f f2ae ee3e 565e ed3e
00000010: 668b b13e 3f09 183f a79b 513f 50a9 c13e
0.7669577 0.7646208 0.46617848 0.46361035 0.34676665 0.5938911 0.8187813 0.37824488

l3.weight f4 [11, 8]
00000000: 6659 8abe 03e6 27bf 9b7b 25bf 73ae 033f
00000010: 179d ad3e 6a40 783e 8a09 903e d475 d1bd
00000020: bfaa 3e3f 6b55 b4be 9e27 133e d495 183f
00000030: f5b2 41be 2e0e e1bf 29ec ab3e 1920 55be
00000040: 9b01 c1bf f19c 4d3e 48f1 263f d9ed 6a3e
00000050: 854f b63e d203 bbbf 051c 033f 7018 aebf
00000060: 336e b6bf 1207 683f b582 cf3c 3c7b 22be
00000070: dc28 1abf 3a88 fdbe 985f ebbe 89c2 403e
00000080: c62d a2bf b8d8 873d de97 9bbf 549d 50bf
00000090: 0605 a3bf 848b f93e 7bd7 d1bf d7dc 4c3f
000000a0: 75ea debf c476 f7bf fbbd b4bf 2ada 4bbf
000000b0: 692c 21bf af38 e53e b888 883f 3df2 dc3e
000000c0: 7bd8 98be 42f4 873e eb48 08c0 2db0 84bf
000000d0: 1cfa aebf 55b3 a53e 0a7d 073f 7bdc 093e
000000e0: ee9d 44bf 8963 173f 3f87 f7bf 0ae9 71bf
000000f0: 5987 533f 5c8d c03e 1bd2 78bf bd26 22be
00000100: a2a2 323f 5045 72be c9e9 adbf c39a 0d3f
00000110: 2ca2 be3e 0d4e f839 043c ecbf 6521 603e
00000120: aee2 cbbd 07f7 073f bca0 a63e 2e43 263f
00000130: 0451 503f 959c 94bf d9d6 01c0 cb82 b9be
00000140: edb3 953f 5ac9 c7bf fbdb 3fbf 622a adbe
00000150: b33d 91bf ca5a b1be e184 433f e452 903e
-0.2702133 -0.65585345 -0.6464173 0.51438063 0.33908913 0.24243322 0.28132278 -0.10227552
0.7447929 -0.3522142 0.14370582 0.5960362 -0.18915923 -1.7582452 0.33578613 -0.20813026
-1.5078615 0.200794 0.65211916 0.22942294 0.35607544 -1.4610541 0.5121463 -1.3601208
-1.425238 0.9063579 0.02533088 -0.15867323 -0.60218596 -0.49517995 -0.4597137 0.1882421
-1.2670219 0.06633133 -1.2155721 -0.81490064 -1.2735908 0.48739254 -1.6393884 0.80024475
-1.7415301 -1.9333119 -1.4120477 -0.79629767 -0.6295839 0.4476981 1.0666723 0.43153563
-0.29852661 0.2655354 -2.1294506 -1.0366265 -1.3670077 0.32363382 0.5292517 0.13463013
-0.7680348 0.59136254 -1.9338149 -0.94496214 0.826284 0.3760785 -0.97195596 -0.1583509
0.6977941 -0.23659253 -1.358697 0.5531427 0.37233102 0.00047360398 -1.8455815 0.21887739
-0.09955345 0.5311131 0.32544506 0.6494626 0.8137362 -1.1610285 -2.0287383 -0.362326
1.1695534 -1.5608323 -0.7494504 -0.33821398 -1.1346954 -0.3463958 0.7637463 0.2818824

l3.bias f4 [11]
00000000: 75a8 e9be 174d 3abe 88fa 5a3e 8d71 723e
00000010: 1f02 bdbe 3492 48be 9f5e 113e 6f60 99be
00000020: af20 3dbe ecd1 95be 7772 603d
-0.45636335 -0.1819347 0.21384633 0.23676129 -0.3691568 -0.19587022 0.14196251 -0.29956385
-0.18469499 -0.2926172 0.054796662
