data.pth (torch, 5207 bytes, 6 tensors)

l1.weight f4 [8, 58]
0.2579539 -0.083897345 -0.24690701 0.18683696 0.36575624 0.493871 -0.57116985 -0.36903045
-0.5097874 -0.26872498 -0.57112795 -0.5648015 0.33614093 0.34309426 -0.11476296 -0.3025539
0.417963 0.17279284 0.51067084 0.5339383 0.24944688 0.41995195 0.51655775 0.122095756
0.8560983 0.34168306 -0.21544924 -0.50744504 -0.24021573 -0.57112294 -0.5710131 -0.5711591
0.49364173 0.51577693 0.34149912 0.35217646 0.77046657 0.20097761 0.1152504 0.55885005
0.2940074 0.17165837 0.5190953 -0.32395154 -0.09136276 -0.57112044 -0.5629399 0.33083445
0.26111242 0.18661311 0.30403844 0.22547388 0.2549369 0.6294908 -0.07401285 0.4254668
-0.20209664 -0.247722 0.14679451 -0.17244783 -0.12443213 0.25147346 0.53651476 -0.1576946
-0.47144216 -0.26450193 -0.36835146 -0.29074118 -0.47142196 -0.47150347 0.32619274 -0.096287124
-0.19342354 -0.18068583 0.3433831 0.22575949 -0.106431246 -0.07960634 0.10178919 0.08669554
-0.06785438 0.11676822 -0.3223931 -0.12977123 -0.32502514 -0.4589841 -0.1746921 -0.47183245
-0.47156307 -0.47141492 0.021945989 -0.20558175 -0.0020883027 0.012586414 -0.25362638 0.15888023
0.024546186 -0.24094348 0.2473866 0.5415073 0.559019 -0.20058268 -0.13643646 -0.4465683
-0.47133338 -0.103330255 0.42450306 0.0468885 0.08844988 -0.2072923 -0.2236766 -0.21800005
-0.10869615 -0.054133445 -0.20715444 -0.27119485 0.106830224 -0.20229825 -0.115004726 0.28552645
-0.06384765 0.32578573 1.0285478 -0.3210983 -0.49351645 -0.26661468 0.041234523 -0.19407429
0.21447091 -0.11131398 0.54000425 -0.17263311 0.06460748 -0.03523568 -0.06748266 0.53841674
0.12158037 0.4833763 -0.23940976 0.025885824 0.97627944 0.35629645 0.26836598 0.8193453
-0.19961877 -0.5660155 -0.5406978 -0.5655755 -0.33522776 -0.086712144 -0.09822127 -0.13626494
0.085231625 -0.029543206 0.07575556 0.5308958 0.0018229397 0.09781938 -0.39379182 0.010469032
-0.04432479 -0.55770344 -0.46533948 -0.06706412 -0.006478727 0.18085173 0.10287284 -0.76451385
0.027403383 0.7722297 -0.046501335 -0.372188 -0.17813942 -0.07015934 -0.2585466 0.4289604
0.4465321 -0.14228372 -0.080495775 0.05742043 -0.63642687 0.51503897 0.5901888 0.41191548
0.5415464 0.5654414 -0.16338629 0.24508592 -0.3937803 0.47949773 0.58319885 0.105407625
0.16041167 0.15373631 0.07312991 0.04953689 -0.6107408 -0.35956433 -0.49970764 0.20218675
0.37240556 -0.38869864 0.36549714 0.6376272 0.5731956 0.598756 0.4497234 0.18082827
0.24605861 0.21242109 -0.06282939 0.09685597 -0.3522739 0.0035655326 -0.027176801 -0.0034524417
-0.5975685 0.44624373 0.47599393 0.44611034 0.60277474 0.1898583 -0.28635535 0.20710711
-0.089150526 0.3504863 -0.15792538 -0.39612958 0.49860474 0.42417166 0.39992628 0.3173442
0.32824972 -0.12481375 -0.091361806 0.3349634 -0.36662066 -0.14673446 0.6700413 -0.038295995
-0.2861923 -0.11403681 -0.11182755 -0.21206212 0.47250906 0.0015633747 0.7931249 -0.17202166
-0.30284464 -0.009788675 -0.12984377 -0.24617119 -0.09119985 -0.14005089 0.34448636 0.5243584
00000000: 8912 843e 5fd2 abbd 31d5 7cbe 3052 3f3e
00000010: 6744 bb3e a9dc fc3e 3038 12bf 8ff1 bcbe
00000020: 6d81 02bf 5296 89be 7135 12bf d596 10bf
00000030: aa1a ac3e 0daa af3e d808 ebbd 58e8 9abe
00000040: 3fff d53e 9bf0 303e 53bb 023f 2eb0 083f
00000050: 016f 7f3e f103 d73e 213d 043f 570d fa3d
00000060: 4229 5b3f 15f1 ae3e ba9e 5cbe ebe7 01bf
00000070: 1dfb 75be 1d35 12bf ea2d 12bf 7c37 12bf
00000080: 9cbe fc3e f509 043f f9d8 ae3e 7950 b43e
00000090: 4c3d 453f 13cd 4d3e 6708 ec3d cc10 0f3f
000000a0: 2388 963e 36c7 2f3e 6ee3 043f fadc a5be
000000b0: 661c bbbd f334 12bf d41c 10bf 2263 a93e
000000c0: 87b0 853e 8217 3f3e edaa 9b3e a0e2 663e
000000d0: 1787 823e 4f26 213f 0d94 97bd c9d6 d93e
000000e0: 6cf2 4ebe d6aa 7dbe 4d51 163e 2a96 30be
000000f0: 46d6 febd 21c1 803e 0859 093f b17a 21be
00000100: de60 f1be cc6c 87be 9098 bcbe 07dc 94be
00000110: 385e f1be e768 f1be bc02 a73e 2f32 c5bd
00000120: d210 46be b505 39be e9cf af3e 7f2d 673e
00000130: a0f8 d9bd a608 a3bd da76 d03d 6e8d b13d
00000140: 3df7 8abd 2d24 ef3d b510 a5be c0e2 04be
00000150: b269 a6be f7ff eabe 7ce2 32be 0694 f1be
00000160: b770 f1be 4c5d f1be 13c8 b33c 0684 52be
00000170: e8db 08bb 3f37 4e3c 51db 81be 80b1 223e
00000180: 1515 c93c e3b9 76be ea52 7d3e 39a0 0a3f
00000190: df1b 0f3f 8c65 4dbe 00b6 0bbe 9aa4 e4be
000001a0: 9c52 f1be d09e d3bd 7758 d93e 280e 403d
000001b0: 3625 b53d 6f44 54be 7b0b 65be 683b 5fbe
000001c0: 169c debd 08bb 5dbd 4b20 54be 0dda 8abe
000001d0: cec9 da3d 4627 4fbe 9987 ebbd 8630 923e
000001e0: 8fc2 82bd 63cd a63e 74a7 833f ff66 a4be
000001f0: 30ae fcbe b881 88be 88e5 283d 69bb 46be
00000200: 439e 5b3e 95f8 e3bd b83d 0a3f bcc6 30be
00000210: ed50 843d 4a53 10bd 5934 8abd aed5 093f
00000220: 21ff f83d 197d f73e d527 75be 820e d43c
00000230: 73ed 793f 7d6c b63e 4467 893e 9dc0 513f
00000240: dd68 4cbe 64e6 10bf 2c6b 0abf 8ec9 10bf
00000250: f9a2 abbe 2396 b1bd 3c28 c9bd 0989 0bbe
00000260: eb8d ae3d 9804 f2bc bb25 9b3d cae8 073f
00000270: b5ef ee3a 8755 c83d 159f c9be 4e86 2b3c
00000280: e98d 35bd a7c5 0ebf fa40 eebe ea58 89bd
00000290: 804b d4bb 3231 393e ffae d23d 2eb7 43bf
000002a0: 0f7d e03c d8b0 453f 2f78 3ebd 6d8f bebe
000002b0: 2e6a 36be b3af 8fbd 3860 84be b3a0 db3e
000002c0: db9f e43e d3b2 11be f8da a4bd af31 6b3d
000002d0: dfec 22bf 98d9 033f 9d16 173f 96e6 d23e
000002e0: c9a2 0a3f c5c0 103f bc4e 27be cef7 7a3e
000002f0: 929d c9be ba80 f53e 854c 153f f4df d73d
00000300: f542 243e 0d6d 1d3e 22c5 953d 32e7 4a3d
00000310: 8259 1cbf d118 b8be aed9 ffbe 0b0a 4f3e
00000320: f1ab be3e 8203 c7be 7122 bb3e 893b 233f
00000330: f2bc 123f 1348 193f 2542 e63e 0c2b 393e
00000340: caf6 7b3e ea84 593e b2ac 80bd 6c5c c63d
00000350: 3f5d b4be b6ab 693b e2a1 debc 5c42 62bb
00000360: 40fa 18bf 0f7a e43e 7ab5 f33e 9368 e43e
00000370: 724f 1a3f 376a 423e 2b9d 92be e313 543e
00000380: 8d94 b6bd f172 b33e 31b7 21be 7fd1 cabe
00000390: 1f49 ff3e 072d d93e 23c3 cc3e f07a a23e
000003a0: 5910 a83e 5a9e ffbd e61b bbbd 5380 ab3e
000003b0: b4b5 bbbe 8f41 16be d487 2b3f 43dc 1cbd
000003c0: cc87 92be 228c e9bd d805 e5bd d026 59be
000003d0: b5ec f13e 26ea cc3a 3c0a 4b3f 7226 30be
000003e0: 740e 9bbe ae60 20bc c4f5 04be 4d14 7cbe
000003f0: fdc6 babd 8069 0fbe 8460 b03e 5a3c 063f

l1.bias f4 [8]
0.5712723 0.4716772 0.5655489 0.9719218 0.28592435 0.66747594 0.28233895 0.76019233
00000000: e73e 123f ad7f f13e d0c7 103f decf 783f
00000010: ad64 923e b4df 2a3f bb8e 903e f79b 423f

l2.weight f4 [8, 8]
0.7184618 1.0747228 0.49531114 0.30818102 -0.29106468 -1.0078207 0.38707227 1.1925713
0.60049206 1.0232482 0.5898165 -0.5020375 0.89058834 0.7032921 -0.8170402 0.7195099
-0.08296114 -0.72295773 -0.77539694 1.6054041 -0.926656 1.1255888 0.2209632 -0.47340795
0.5914648 1.0627317 0.4825502 0.5450265 -0.41096532 -0.228562 -1.3589447 1.2171884
0.87895066 -0.20193075 0.95237285 -0.7437636 0.58235097 0.9745526 0.7082179 -0.3045007
0.49521688 0.9386217 -0.1552216 -0.6020387 0.9125534 0.9461386 -0.47070253 0.847392
0.50073653 -0.49734885 1.2704568 0.2643269 0.38604763 -0.55066043 1.8608418 -0.24762972
-1.1085272 -0.70958745 0.5841533 0.5084481 1.1610361 0.59014493 -0.44293863 0.40594196
00000000: 1ded 373f 8490 893f 6c99 fd3e e7c9 9d3e
00000010: 6e06 95be 4500 81bf 562e c63e 2da6 983f
00000020: d9b9 193f ccf9 823f 37fe 163f 8885 00bf
00000030: 99fd 633f f30a 343f 8c29 51bf cd31 383f
00000040: 88e7 a9bd c213 39bf 6a80 46bf e27d cd3f
00000050: 5439 6dbf 4b13 903f 2d44 623e 8762 f2be
00000060: 3d6a 173f 9807 883f d210 f73e db86 0b3f
00000070: 0c6a d2be 280c 6abe e6f1 adbf d4cc 9b3f
00000080: e902 613f efc6 4ebe b5ce 733f 4b67 3ebf
00000090: f414 153f 477c 793f c54d 353f 84e7 9bbe
000000a0: 118d fd3e 8349 703f 69f2 1ebe 351f 1abf
000000b0: 1a9d 693f 2436 723f ecff f0be afee 583f
000000c0: 4530 003f 82a4 febe 549e a23f db55 873e
000000d0: 09a8 c53e 15f8 0cbf 1030 ee3f a592 7dbe
000000e0: 38e4 8dbf 86a7 35bf 128b 153f a829 023f
000000f0: d59c 943f bd13 173f dac8 e2be a0d7 cf3e

l2.bias f4 [8]
0.5729433 0.36969087 0.82167387 0.5321174 -0.40984792 0.3241906 0.39704233 0.7260523
00000000: 69ac 123f 1f48 bd3e 3859 523f d938 083f
00000010: 96d7 d1be 4ffc a53e 2249 cb3e 90de 393f

l3.weight f4 [7, 8]
0.53492045 -1.43412 0.21865551 -0.975931 -1.0501245 -2.1020272 0.46729213 0.20914687
-1.4400711 0.20024896 -1.1832703 -1.2062091 0.051434826 -0.09603408 0.42766768 0.42677552
0.56834924 -0.19604962 -1.8924642 0.03980019 0.09414377 -1.0778192 0.6262853 -1.1541739
-0.20190473 0.64667654 -1.6198642 -0.20767847 0.0857616 0.64302 -1.8966709 -0.20293346
-1.5853876 -0.41917878 0.39217603 -0.9184101 0.19025022 -0.26481906 -0.41903073 -1.085977
0.8559833 0.5176942 -0.61883795 0.6486557 -1.1007879 0.023488421 -0.7100963 -0.5348995
-1.0598613 -0.6647048 1.138754 0.41396704 -1.5899634 -1.084594 -1.9765347 0.75247866
00000000: 8cf0 083f 3f91 b7bf 3be7 5f3e 9dd6 79bf
00000010: 7b6a 86bf 9d87 06c0 ea40 ef3e 992a 563e
00000020: 4054 b8bf 100e 4d3e 6775 97bf 0f65 9abf
00000030: 53ad 523d 84ad c4bd 42f7 da3e 5282 da3e
00000040: 567f 113f 3bc1 48be 443c f2bf 8605 233d
00000050: 73ce c03d fbf5 89bf 3c54 203f f8bb 93bf
00000060: 1dc0 4ebe 988c 253f b657 cfbf aaa9 54be
00000070: c7a3 af3d f59c 243f 1dc6 f2bf cacd 4fbe
00000080: fbed cabf 9a9e d6be 4ccb c83e ed1c 6bbf
00000090: f4d0 423e 5d96 87be 328b d6be 4b01 8bbf
000000a0: b921 5b3f 9b87 043f 2a6c 1ebf 4d0e 263f
000000b0: 9ee6 8cbf ca6a c03c dfc8 35bf 2cef 08bf
000000c0: 89a9 87bf 182a 2abf b1c2 913f 7df3 d33e
000000d0: ec83 cbbf fad3 8abf 17ff fcbf 71a2 403f

l3.bias f4 [7]
0.09091332 -0.20250629 -0.09777081 -0.6585065 -0.13611685 -0.1589131 0.029704662
00000000: c330 ba3d cf5d 4fbe 103c c8bd e293 28bf
00000010: 3762 0bbe 1eba 22be 3157 f33c
