data.pth (torch, 5015 bytes, 6 tensors)

l1.weight f4 [8, 54]
-0.10852651 0.2847302 0.20813201 -0.39931554 0.3365578 0.6282213 0.24081956 0.26031473
0.43069324 0.36325467 -0.34824812 -0.39657208 0.5275502 -0.056007206 0.41390416 -0.31534207
-0.08821911 0.6004482 0.35031143 -0.4134704 -0.31050736 -0.33075806 -0.44913185 -0.41521943
-0.102089375 -0.20398764 0.54487157 0.40335727 0.38365525 0.3294455 0.2636331 -0.20469351
-0.21529467 0.18470281 0.5703819 -0.22690831 0.3161008 0.23252892 0.46784273 0.38076404
0.4335111 0.6024772 -0.24264842 0.34315932 0.09654551 0.3648933 -0.7236797 -0.10534865
0.11784791 0.5331465 -0.3090455 0.3703342 0.34330457 0.66805387 0.5284763 0.11414888
-0.26037306 0.2791733 0.3259741 -0.525939 -0.10614586 -0.16154736 -0.36007282 -0.3760285
0.2996414 0.054641232 -0.386408 -0.023822611 0.30261046 0.1518533 0.29395342 -0.5500346
-0.1685939 0.56494063 0.32278946 0.52151203 0.48406845 0.5552716 -0.029673824 0.32485878
-0.16988139 0.07924216 -0.18513443 0.16783088 -0.29941076 0.20256479 0.34042653 -0.1505648
-0.3254023 0.16158016 -0.2689529 -0.25083664 -0.17145655 -0.070348896 -0.38735577 -0.15702325
-0.012878484 0.20931527 0.0005452139 -0.09950117 0.63824594 0.44124588 -0.00924361 -0.37923232
0.24849975 -0.19847241 -0.26015273 0.23623025 0.509824 -0.011053989 -0.31229693 0.09144303
-0.008773761 0.731162 -0.2908593 -0.5108291 -0.37905994 -0.40602353 0.17336373 0.66537964
-0.16122502 0.7593162 -0.088903375 0.34752122 0.06527719 0.72303385 -0.259517 -0.031326443
0.42650115 0.061850708 0.019019669 0.66527 0.28400904 0.010903103 -0.15179712 -0.24009392
-0.27958438 -0.29103956 0.51203865 0.6380726 0.34095818 -0.29732224 -0.2646133 0.44411543
-0.022825187 -0.38310722 -0.10762779 -0.2053271 0.42438757 -0.30710742 0.5791019 -0.16281807
0.43990374 -0.22631302 0.76362604 0.2561985 0.02132555 -0.30036286 0.45766127 -0.19833978
-0.33224902 0.029014463 0.37361506 0.58603317 -0.37485093 -0.35054368 -0.098765396 -0.36080876
-0.08810225 -0.25778973 -0.32440716 -0.3399372 -0.18095909 0.09352059 0.27025598 -0.015259387
0.36782828 0.057317108 -0.18260247 -0.3611845 0.3087427 -0.34799886 0.28054717 -0.36085898
-0.3608339 -0.37735584 0.105323955 -0.19723731 0.48688725 0.39096832 0.39182034 0.30385956
-0.4035264 0.015162243 0.4330741 -0.38270578 0.37491342 0.10050496 0.43793705 -0.2259071
-0.14779101 -0.091558605 -0.3334426 0.5905228 -0.007161087 0.39546576 -0.38210434 0.32932317
0.936844 0.4331227 0.18762879 0.4333822 0.059299715 0.38522056 -0.094875544 0.3761555
-0.0047993907 0.12538008 0.43288428 0.32034272 0.4094624 -0.5163751 0.2077656 0.47796804
-0.015755463 0.5677894 0.3273115 -0.27980104 0.01310137 -0.31802878 -0.037413534 -0.13479441
0.3354608 -0.5171753 -0.15461206 0.602162 -0.09327701 0.6692839 0.6754207 0.4510035
0.04434341 0.25301987 -0.3564411 -0.07874744 -0.3088956 -0.024719173 -0.33192593 -0.38606232
0.10090635 0.28111136 -0.20178375 -0.108837895 -0.2798131 -0.08164747 0.15802453 0.056297824
00000000: 2643 debd 28c8 913e 8f20 553e 1673 ccbe
00000010: 4e51 ac3e 1cd3 203f 6799 763e f947 853e
00000020: d383 dc3e 84fc b93e 944d b2be 7f0b cbbe
00000030: 880d 073f d067 65bd 3feb d33e 8474 a1be
00000040: 39ac b4bd f9b6 193f 055c b33e 64b2 d3be
00000050: d2fa 9ebe 1f59 a9be 9cf4 e5be a497 d4be
00000060: 3c14 d1bd 23e2 50be b47c 0b3f d884 ce3e
00000070: 766e c43e 15ad a83e ebfa 863e 2d9b 51be
00000080: 3576 5cbe bc22 3d3e 8c04 123f a75a 68be
00000090: f7d7 a13e 101c 6e3e 1589 ef3e 81f3 c23e
000000a0: 2bf5 dd3e f23b 1a3f d478 78be 94b2 af3e
000000b0: a7b9 c53d 4bd3 ba3e 1343 39bf 08c1 d7bd
000000c0: 3f5a f13d 4a7c 083f 363b 9ebe 729c bd3e
000000d0: 9ec5 af3e 9405 2b3f 394a 073f e3c6 e93d
000000e0: 9e4f 85be ceef 8e3e 14e6 a63e f0a3 06bf
000000f0: 0063 d9bd ac6c 25be 775b b8be cf86 c0be
00000100: 996a 993e 7ccf 5f3d 45d7 c5be a327 c3bc
00000110: c2ef 9a3e 6e7f 1b3e 1081 963e 11cf 0cbf
00000120: e1a3 2cbe f39f 103f a944 a53e d081 053f
00000130: d2d7 f73e 4826 0e3f 8516 f3bc e453 a63e
00000140: 63f5 2dbe b749 a23d e193 3dbe dcdb 2b3e
00000150: 5e4c 99be 256d 4f3e 634c ae3e a92d 1abe
00000160: 219b a6be 4575 253e 32b4 89be a96d 80be
00000170: 4e92 2fbe 1513 90bd 7f53 c6be b4ca 20be
00000180: 4700 53bc be56 563e afec 0e3a 45c7 cbbd
00000190: 1664 233f fbea e13e 8372 17bc bd2a c2be
000001a0: b876 7e3e 5a3c 4bbe bd32 85be 58e6 713e
000001b0: d383 023f ca1b 35bc 62e5 9fbe 7c46 bb3d
000001c0: d2bf 0fbc 6f2d 3b3f 83eb 94be b2c5 02bf
000001d0: 2514 c2be 51e2 cfbe 4386 313e 5256 2a3f
000001e0: 2c18 25be 8c62 423f f912 b6bd 4dee b13e
000001f0: 0cb0 853d bf18 393f 6adf 84be 2850 00bd
00000200: 5c5e da3e 2b57 7d3d 23cf 9b3c 224f 2a3f
00000210: a269 913e eea2 323c b470 1bbe 2edb 75be
00000220: af25 8fbe 2303 95be f714 033f ba58 233f
00000230: 1292 ae3e 9f3a 98be 657b 87be 1963 e33e
00000240: e3fb babc a126 c4be f56b dcbd 4441 52be
00000250: 5449 d93e 2f3d 9dbe 0640 143f c8b9 26be
00000260: 103b e13e 9abe 67be ff7c 433f 732c 833e
00000270: ebb2 ae3c 29c9 99be 9452 ea3e 9519 4bbe
00000280: 8b1c aabe bdaf ed3c 794a bf3e 4506 163f
00000290: 76ec bfbe 767a b3be 8345 cabd edbb b8be
000002a0: f46e b4bd 04fd 83be b218 a6be 400c aebe
000002b0: 574d 39be b987 bf3d fe5e 8a3e 8202 7abc
000002c0: fd53 bc3e 58c5 6a3d 24fc 3abe 2ded b8be
000002d0: 8613 9e3e e82c b2be e1a3 8f3e 82c2 b8be
000002e0: 39bf b8be c934 c1be 16b4 d73d 94f8 49be
000002f0: 4949 f93e 002d c83e ad9c c83e 7b93 9b3e
00000300: 039b cebe 0e6b 783c e3bb dd3e 03f2 c3be
00000310: a7f4 bf3e 8bd5 cd3d 4939 e03e 3154 67be
00000320: 8756 17be 1483 bbbd fdb8 aabe 812c 173f
00000330: 8da7 eabb 7d7a ca3e 2ea3 c3be 0c9d a83e
00000340: 02d5 6f3f 42c2 dd3e c321 403e 46e4 dd3e
00000350: 42e4 723d a13b c53e 1c4e c2bd 7497 c03e
00000360: 3544 9dbb a363 003e 02a3 dd3e f603 a43e
00000370: 0ea5 d13e 2931 04bf 81c0 543e 3ab8 f43e
00000380: 9a11 81bc a55a 113f 5f95 a73e 1542 8fbe
00000390: 21a7 563c abd4 a2be ef3e 19bd 8c07 0abe
000003a0: 85c1 ab3e 9a65 04bf a052 1ebe 4a27 1a3f
000003b0: 0408 bfbd 3156 2b3f 5fe8 2c3f eee9 e63e
000003c0: 6fa1 353d d28b 813e 737f b6be 5646 a1bd
000003d0: 9027 9ebe dd7f cabc 32f2 a9be f6a9 c5be
000003e0: fda7 ce3d d4ed 8f3e 66a0 4ebe 67e6 debd
000003f0: aa43 8fbe ca36 a7bd 2fd1 213e 8c98 663d

l1.bias f4 [8]
0.82196176 0.68643796 0.7419618 0.36078838 0.5177846 0.49266163 0.48660207 0.52958894
00000000: 166c 523f 66ba 2f3f 35f1 3d3f 41b9 b83e
00000010: 888d 043f 253e fc3e e823 f93e 2493 073f

l2.weight f4 [8, 8]
0.7981912 0.850707 -0.17002794 -0.9011131 1.3167928 1.3447084 0.3576216 0.8534749
-0.75645834 1.0895296 1.1282028 -0.23378696 1.1445291 -0.30879208 0.31135544 0.07624292
1.1198591 -0.80272454 -1.3417062 0.6954231 0.31361875 0.3574813 0.5554814 0.31225118
0.39358208 -0.37105304 0.99068785 -0.6592394 -0.40417936 0.19037645 -0.72120273 -0.24543726
0.949224 -0.2643826 0.87934023 0.25622606 -1.1738329 0.12731421 -0.4973707 -0.8575927
-0.4759053 0.98267275 0.66867715 0.56392074 0.39232638 -0.6868758 0.9080969 0.9885929
0.7799628 0.23020086 -0.23893893 0.93876714 -0.4758939 -0.90330505 0.81800765 0.879065
-0.8109638 0.4091756 1.1407377 0.918294 -0.3805235 -0.8449474 0.043015853 0.1428977
00000000: 4256 4c3f efc7 593f ce1b 2ebe 59af 66bf
00000010: ab8c a83f 681f ac3f 2e1a b73e 557d 5a3f
00000020: 41a7 41bf b575 8b3f f368 903f d965 6fbe
00000030: ee7f 923f ff19 9ebe fb69 9f3e 3f25 9c3d
00000040: 8b57 8f3f 5b7f 4dbf 07bd abbf 4007 323f
00000050: a392 a03e ca07 b73e 0734 0e3f 63df 9f3e
00000060: 9783 c93e aafa bdbe b89d 7d3f eac3 28bf
00000070: 99f0 cebe 0bf2 423e bea0 38bf e853 7bbe
00000080: 5800 733f 285d 87be 711c 613f 1030 833e
00000090: 2840 96bf a85e 023e 5fa7 febe 328b 5bbf
000000a0: dca9 f3be 7190 7b3f 6d2e 2b3f 1c5d 103f
000000b0: 01df c83e 18d7 2fbf 0a79 683f 6d14 7d3f
000000c0: a4ab 473f c6b9 6b3e 68ac 74be 0b53 703f
000000d0: 5ea8 f3be 003f 67bf f368 513f 670a 613f
000000e0: 539b 4fbf 777f d13e b103 923f 5115 6b3f
000000f0: fad3 c2be 794e 58bf 6431 303d c653 123e

l2.bias f4 [8]
0.6609842 0.5824593 0.22098562 0.54863316 0.8165196 0.037248854 -0.29964876 0.017897632
00000000: 4336 293f 0d1c 153f 0e4a 623e 3973 0c3f
00000010: 6e07 513f 4192 183d 906b 99be 0e9e 923c

l3.weight f4 [7, 8]
-1.1759136 0.2844784 -1.0437981 0.50128204 0.12261176 0.047119517 -1.1694772 0.65977985
-0.37771365 -0.9946352 -0.09575898 -0.41610086 -1.0417435 0.45889145 0.5447493 -1.2169275
0.012450805 -0.10225134 -1.1265929 0.7966651 1.0144641 -1.5891191 -0.4929316 -0.3165181
0.46676946 0.76858586 -1.1203136 -0.8852 -0.9164241 0.30133757 -1.2898455 -1.6607378
-0.71847993 -0.7353083 0.5475661 -1.0383973 0.40006313 -1.4175243 0.41240633 -0.9930009
0.59968925 -0.8092625 0.3041166 -0.2648684 -0.70188624 -0.99724895 -0.9985918 -0.8872361
-0.49889383 0.11933845 -1.0464361 -0.5854378 -1.2565887 0.6443089 0.12305591 0.27797294
00000000: 5684 96bf 27a7 913e 2d9b 85bf 0554 003f
00000010: e01b fb3d 6500 413d 6eb1 95bf 55e7 283f
00000020: af63 c1be 6aa0 7ebf 491d c4bd 2c0b d5be
00000030: da57 85bf d2f3 ea3e b174 0b3f 48c4 9bbf
00000040: 76fe 4b3c 2769 d1bd 3234 90bf 3ef2 4b3f
00000050: f6d9 813f 4168 cbbf 8861 fcbe a90e a2be
00000060: 68fc ee3e 0bc2 443f 7066 8fbf 789c 62bf
00000070: c59a 6abf eb48 9a3e a819 a5bf 0e93 d4bf
00000080: 4dee 37bf 2a3d 3cbf 4b2d 0c3f 34ea 84bf
00000090: 13d5 cc3e 7071 b5bf ec26 d33e 4f35 7ebf
000000a0: 3c85 193f d42b 4fbf 2cb5 9b3e d59c 87be
000000b0: d1ae 33bf b54b 7fbf b6a3 7fbf e821 63bf
000000c0: 036f ffbe b867 f43d 9ef1 85bf 40df 15bf
000000d0: e6d7 a0bf 6ef1 243f bd04 fc3d 7852 8e3e

l3.bias f4 [7]
-0.29229337 -0.18275417 -0.012361663 0.04063908 0.059687223 0.35010016 -0.38279876
00000000: 7aa7 95be e923 3bbe 9388 4abc 2a75 263d
00000010: 977a 743d 5440 b33e 33fe c3be
