data.pth (torch, 5207 bytes, 6 tensors)

l1.weight f4 [8, 58]
000000 0a 57 b5 be 8e ca c0 bd 48 a3 57 be e7 81 dc be
       -0.35417968 -0.09413634 -0.2105838 -0.43067858
000010 9f 9a ad 3e 2a d9 f0 bd ba e2 23 bf 73 21 a5 be
       0.3390703 -0.11760171 -0.6401783 -0.32252082
000020 e2 75 fc be b6 ec a0 be b9 02 79 be 13 08 9a be
       -0.49308687 -0.31430596 -0.24317445 -0.30084285
000030 5b 3a 70 3e aa 2a e6 3e a1 b3 08 bf f9 d4 8f be
       0.23459761 0.44954425 -0.5339909 -0.28092173
000040 8c d4 f9 3e ed d7 b9 3e a9 ee 4a 3e 38 5c b7 3c
       0.48794973 0.3629755 0.19817604 0.02238284
000050 b3 41 eb 3e b0 fa a7 bd ce ae 31 bf a8 0f 19 bf
       0.45948562 -0.08202112 -0.69407356 -0.59789515
000060 e4 d9 23 bf 70 d2 fe 3c 5a 2f a9 be af ea 0d bf
       -0.6400435 0.031106204 -0.3304394 -0.55436224
000070 58 ec 3d be cd 10 f0 be c1 98 92 be 95 99 b9 be
       -0.18547189 -0.46887818 -0.28632167 -0.36249986
000080 ed c8 fe 3e 51 1d b0 3e b0 7d 57 3e a5 f6 ba 3e
       0.4976267 0.34397367 0.2104404 0.365163
000090 87 c1 c9 bd b2 9d bf 3e 40 1b 45 bf 2f aa ee bd
       -0.098513655 0.37425 -0.76994705 -0.11653554
0000a0 6c 97 c5 3e 46 34 ef 3e 7b f1 1a bf 31 56 15 be
       0.38592088 0.4671957 -0.6052472 -0.1458366
0000b0 6d 52 a7 3c 43 a2 0a bf d7 c8 d2 be 66 f5 03 3f
       0.020425046 -0.5415384 -0.41168854 0.51546323
0000c0 91 c3 9b 3e 45 f4 d3 3e 1c ec 94 3e 7e bb 22 3f
       0.30422643 0.413973 0.29086387 0.6356734
0000d0 5a c7 ad 3d 91 af 0a bf ad 61 ca 3c b3 6d e3 3e
       0.08485289 -0.54174143 0.024704779 0.4441963
0000e0 1c c3 19 be e0 54 3c be cf 12 0a 3f 1f 4c 65 be
       -0.15015835 -0.18391752 0.5393495 -0.22392319
0000f0 a4 b3 91 be d9 5c 17 3f d6 34 77 be ce 93 0d 3e
       -0.28457367 0.5912605 -0.24141249 0.13825914
000100 87 ed 28 3f 27 0d b1 be 8c 92 17 bf ae 80 d2 be
       0.6598744 -0.34580347 -0.5920799 -0.411138
000110 da 5e 2e bf 0b 49 2e bf ee d2 d0 3e d5 e9 09 3e
       -0.6811348 -0.68080205 0.40785927 0.13468106
000120 36 09 5f 3f 19 c9 89 be 32 c5 c4 be ae 23 74 3e
       0.8712343 -0.26911238 -0.38431698 0.23841736
000130 8b 65 91 3e 40 69 69 3e 96 a6 83 3b 36 08 a7 3e
       0.28397784 0.22794056 0.0040176613 0.32623452
000140 62 c1 41 3f 70 f4 30 3f 1b d8 81 3f 3c d0 91 3e
       0.75685704 0.6912298 1.0144075 0.28479183
000150 34 2d 9d 3e b6 a5 df 3e f5 91 30 be 21 59 01 bf
       0.3069855 0.43681115 -0.17243178 -0.50526625
000160 32 76 13 bf 4d 5d 2b bf 96 56 64 be 27 f3 21 3e
       -0.57602227 -0.6693924 -0.22298655 0.15815412
000170 c4 78 48 3e 54 07 dc 3d 67 bf 9f 3e 0f f1 7a 3d
       0.19577318 0.10743585 0.31200716 0.061265048
000180 da c3 20 3f c7 75 18 3f e6 c8 77 3e 5f 03 96 be
       0.62798846 0.59554714 0.2419773 -0.29299447
000190 15 42 4f 3f 0e 77 a7 be bd a7 0d be cb fb 2d bf
       0.8096021 -0.3270802 -0.13833518 -0.6796233
0001a0 d1 4e 24 bf 69 12 3a 3f 91 54 3d 3e 82 36 15 3f
       -0.64182764 0.7268434 0.18489291 0.582863
0001b0 3c 05 5a 3e 88 dc b3 be d1 43 36 3f 3f 36 40 3f
       0.2129106 -0.3512919 0.7119723 0.7508277
0001c0 b1 d0 09 be 09 54 80 be 7d eb aa be ce f3 b4 be
       -0.13458516 -0.25064114 -0.33382788 -0.35342258
0001d0 02 4d a7 3e 51 1b ff bd f7 30 89 be 14 eb 00 3f
       0.3267594 -0.12456382 -0.2679517 0.503587
0001e0 9e a6 b8 3e 08 f7 a7 3e c8 fb 16 3f ba 15 79 be
       0.3606462 0.32805657 0.5897794 -0.24324694
0001f0 8e ff 08 bf c7 02 69 be 0f 94 f0 3e f2 ed d7 3e
       -0.53514946 -0.22754966 0.4698796 0.42173725
000200 9c aa 0a 3f c5 81 07 3f 68 c7 d3 3e 44 d4 aa be
       0.5416658 0.5293239 0.41363072 -0.3336507
000210 0f c4 89 bd 33 30 e4 3d e7 27 2f 3f 83 01 46 3e
       -0.06726848 0.11142006 0.6842026 0.19336514
000220 7d 46 65 3e d5 65 b3 3e 36 fe 45 3f 9e a1 20 3f
       0.2239017 0.3503863 0.7734102 0.6274661
000230 bb 8a 82 3f 7d 25 69 3e fd 7a b5 3d f0 8a d3 3e
       1.0198587 0.22768207 0.08861349 0.41316938
000240 9c 5a 2c be 95 4e d5 be f0 e4 04 bf 64 ab 0a bf
       -0.1683144 -0.41661516 -0.5191183 -0.5416777
000250 fb 83 14 3f 31 9c 00 3f 6f 54 f9 3e 3e 7b 18 3f
       0.58013886 0.5023833 0.4869723 0.5956305
000260 d8 af 84 3f a0 c7 bb 3c ad d2 d5 3e 68 0a 34 3f
       1.0366163 0.022922337 0.41762295 0.7032838
000270 03 5f e9 3d 0b bf f5 3d 5d 3e 65 3f f0 a6 85 3e
       0.11395075 0.11999329 0.89548284 0.26103926
000280 f8 22 dc bd a3 f5 04 bf cb 7d 0c bf d2 3f 38 3f
       -0.10748857 -0.5193731 -0.54879445 0.7197238
000290 d6 07 bb 3e 73 f4 2c 3f 06 44 01 3e 74 5f 34 3f
       0.36529416 0.675605 0.12623605 0.7045815
0002a0 e9 a5 e9 3e 75 df 2d 3f 2e 5f dc bd b6 f0 35 3f
       0.45634392 0.67919093 -0.107603416 0.7107042
0002b0 c1 b5 a2 be b1 90 94 3e 30 e0 12 3d f6 8d a6 3e
       -0.31779292 0.2901664 0.035858333 0.32530183
0002c0 2e a6 b5 3e 60 72 8f 3c 95 ea 8f 3e 9a d1 ae be
       0.35478348 0.017510593 0.2810866 -0.34144288
0002d0 09 9e 3f 3f c9 b9 e5 3e 58 f9 38 3f 2e 9d 04 3f
       0.7485052 0.44868305 0.7225547 0.5180234
0002e0 a4 89 43 bf 41 4e 3f bf 99 ea cf 3d 7b 0f 24 be
       -0.763819 -0.7472878 0.10152168 -0.1602153
0002f0 4e 15 67 3e cc fa b4 3e 1e 7d bf 3e e5 cf a2 3e
       0.22566721 0.35347593 0.37400144 0.31799236
000300 ad e6 65 be 1e 56 83 be 17 ab fa 3d c7 18 74 be
       -0.22451277 -0.2565164 0.12239664 -0.23837577
000310 b7 d6 0b bf b6 db de be 43 e2 3a bf e3 cc 1a be
       -0.54624504 -0.43527 -0.730015 -0.1511722
000320 1e 9f d2 3e ea 20 1c 3f 12 b8 cb 3e 91 a5 0f 3f
       0.41137022 0.6098772 0.39788872 0.5611201
000330 7c ae 0e 3f 7b d4 03 3f 06 38 ff be 46 49 34 bd
       0.5573499 0.51496094 -0.4984743 -0.04401519
000340 8e ef 9c bb f8 3b 5e be 49 ce 1e bf 43 10 5b 3e
       -0.0047892993 -0.21702564 -0.62033516 0.21392922
000350 70 26 fe be 6b f1 e7 bc 46 f5 fe 3d c2 5f 64 3e
       -0.496387 -0.02831336 0.12449126 0.22302154
000360 88 28 81 bf 78 38 c1 be ea b8 77 3e 6f db 28 3f
       -1.0090494 -0.37738395 0.24191633 0.6595983
000370 1b 64 14 3f c7 36 e7 bd cb 23 38 3e 5e 0a fd 3e
       0.5796525 -0.11289745 0.17982404 0.49421972
000380 8b 10 7e 3e a2 d3 ea be 53 64 84 be 8a e6 26 be
       0.24810998 -0.45864588 -0.2585779 -0.16298881
000390 f6 7c cc 3e d8 81 c6 be 6f ba d4 3e f8 33 c4 be
       0.39939088 -0.38770938 0.41548488 -0.383209
0003a0 fd 1e e8 3e 14 4d 4e bd ac 8c 4f 3d 8a 10 12 3f
       0.45336142 -0.050366476 0.050671265 0.57056487
0003b0 98 82 b3 bb 00 13 a5 bc 0b 19 31 3f 22 01 f0 bd
       -0.0054782145 -0.020150661 0.6917884 -0.11718966
0003c0 f1 b6 d7 bd f9 c7 df bd f4 06 9c bd 07 10 0a bd
       -0.1053294 -0.10926814 -0.07618514 -0.03370669
0003d0 2e 57 c5 3e c7 31 81 be b0 b5 15 3f cb 50 b5 bd
       0.38543075 -0.2523329 0.5848036 -0.08853301
0003e0 91 54 91 be 22 6a d1 3d 4f 8b 04 bd 04 c9 51 bd
       -0.28384832 0.10225321 -0.032359418 -0.051217094
0003f0 c3 81 84 3c c6 5c 2d 3d 20 05 df 3d e3 7c 33 3f
       0.016175156 0.042324804 0.108896494 0.70112437

l1.bias f4 [8]
000000 07 de 23 3f 30 33 2e 3f b8 9a 0f 3f 45 70 43 3f
       0.6401066 0.68046856 0.5609546 0.76343185
000010 24 35 e2 b5 a3 20 1c 3f e9 8d 43 3f e2 f0 5b 3f
       -1.6853778e-06 0.609873 0.7638841 0.85914433

l2.weight f4 [8, 8]
000000 6a 82 08 3f 06 e6 39 bf 0a d5 2c bf d4 cc 34 3f
       0.53323996 -0.7261661 -0.6751257 0.7062504
000010 a0 0c 7d bd a0 9b 16 bf b5 68 a9 3f 17 d2 b8 3f
       -0.06177962 -0.58831215 1.3235079 1.4439114
000020 cb 25 a4 bf c6 79 b2 3f cb c1 5f 3f e1 49 d4 be
       -1.2824033 1.3943412 0.8740508 -0.41462615
000030 3f 79 a5 3f c6 43 ac 3e a6 1b 91 bc 87 6a 61 be
       1.2927626 0.33645457 -0.01771338 -0.22013293
000040 0e bb f6 3c 7c de ae be 1b 64 55 3f 44 48 4a bf
       0.030118492 -0.34154117 0.83355874 -0.7901652
000050 de a5 db be cd 24 31 bf 60 80 a8 3f 54 9b 46 3e
       -0.42899984 -0.6919678 1.3164177 0.1939519
000060 c1 b3 b5 3e 6a b7 e5 3d 7e dc f4 be b9 9e c8 3f
       0.35488704 0.11216624 -0.47824472 1.5673438
000070 2a 09 f1 3e 1b 18 cc 3e 54 34 39 3f 3b 14 df be
       0.47077304 0.3986214 0.7234547 -0.43570122
000080 91 b6 ae 3f 42 9b 84 3f 3f 50 7f 3f ad fa f4 3e
       1.3649465 1.0359881 0.9973182 0.478475
000090 14 eb 2b bf 2d f4 e0 3f 81 22 4b bf 5a 12 9e 3f
       -0.67155576 1.7574517 -0.79349524 1.234935
0000a0 e0 90 19 3f cf e2 f9 be 01 b0 14 3f 4e ba ed be
       0.59986687 -0.48805854 0.5808106 -0.46431202
0000b0 ce ad 68 bf a3 6d de be 1b 63 83 3f 51 38 69 3f
       -0.90890205 -0.4344302 1.026462 0.91101557
0000c0 67 6a d9 bd e9 2e 74 3d a7 a7 79 be fb 1d 8a 3f
       -0.10615998 0.05961505 -0.2438036 1.0790399
0000d0 7f db 09 3f b3 18 0f 3f 69 f6 6e 3f 1b ed 3c bf
       0.5385055 0.55897063 0.9334474 -0.73799294
0000e0 48 31 53 3e 7a 82 90 bd 9a ce 14 bf 96 68 be 3f
       0.20624268 -0.070561364 -0.5812775 1.4875667
0000f0 19 9e d9 3e e1 b0 3e 3f b6 a0 42 3f 27 07 fd be
       0.4250343 0.74488646 0.76026475 -0.4941952

l2.bias f4 [8]
000000 70 58 2d 3f f4 9d df 3e d1 18 1e 3f b0 7b 81 3d
       0.6771307 0.43675196 0.61756617 0.0632242
000010 e2 17 69 3e 78 a6 32 3f 94 80 82 3d a9 50 fe 3e
       0.22763017 0.6978526 0.063721806 0.49670914

l3.weight f4 [7, 8]
000000 48 22 10 3f 2d f1 3e bf fd bf 35 3f 1f 98 a8 bf
       0.5630231 -0.74586755 0.70996076 -1.3171424
000010 be e2 60 bf c7 66 57 3f 0a 46 b2 bf f4 9c b5 be
       -0.8784598 0.841412 -1.3927624 -0.35471308
000020 4f ba 99 bf 66 e0 ea 3d cb 4e b4 bf f8 17 e4 3d
       -1.2009982 0.11468582 -1.4086546 0.11137384
000030 13 ac 7c 3d fe 78 aa bf 63 1e 12 3f ab 48 cf 3e
       0.06168754 -1.3318174 0.57077616 0.4048513
000040 e5 7e 65 bf ab e6 52 3f a6 3b 34 3f 37 8a 9a bf
       -0.8964675 0.8238322 0.70403516 -1.207343
000050 42 57 2d bf 43 3d 79 3e 0a 31 88 be 6e 9d be be
       -0.6771127 0.24339776 -0.26599914 -0.37229484
000060 bb c9 23 bf e3 ce 2b 3f c0 e5 cd bf 41 81 e7 bf
       -0.6397969 0.6711256 -1.6085739 -1.808632
000070 e9 63 9e 3e 2b 21 8d bf f4 8d 96 bf 44 d2 25 bf
       0.309356 -1.1025747 -1.1762071 -0.64773965
000080 2a d7 82 bf 5d 09 f6 be 94 05 81 be 57 af d2 bf
       -1.0221913 -0.4805402 -0.25199568 -1.645976
000090 2f 52 10 3f a6 35 28 3e f3 a8 a4 bf 90 82 4a bf
       0.563754 0.16426715 -1.2864059 -0.7910547
0000a0 6e ad ac 3e 1c 60 8b bf f2 2b 2c bf f0 d8 54 bc
       0.33726066 -1.0888705 -0.67254555 -0.012991175
0000b0 62 10 b0 3e 87 4b a9 bd 75 6b dd be 1e 1f 85 3e
       0.343875 -0.08266359 -0.43246046 0.26000303
0000c0 c9 ae b0 3e a2 c7 90 bf 2d 90 70 be 86 35 42 3f
       0.3450835 -1.1310923 -0.23492499 0.7586292
0000d0 76 91 ea bf da b8 81 be 74 a2 58 3f 42 c6 07 3f
       -1.8325641 -0.25336343 0.84622884 0.5303689

l3.bias f4 [7]
000000 1f 9c 0d be f7 ee 23 be 59 00 0f 3e b5 4d a1 be
       -0.13829087 -0.16009127 0.13964976 -0.31504598
000010 5c 83 e2 bd fe 8b d4 3d ab 0a 93 3e
       -0.11060211 0.10378264 0.28719077
