data.pth (torch, 5271 bytes, 6 tensors)

l1.weight f4 [8, 61]
00000000: 0e73 67bd c216 46be ebc5 76be 8f76 1a3f
00000010: 31d8 0e3f 0879 9a3e 4737 ea3e d6e4 303e
00000020: 2bef 3e3f 3624 06be 8413 4d3f 98c6 10be
00000030: acdf 56be 295f 1b3d cde8 d5be 8c88 99bd
00000040: e464 babd 48ce 9fbe 3344 9fbe e3db 6b3e
00000050: f4ca 6a3d c707 c73d add1 28be e59b bdbd
00000060: 137f 35be 9a01 ddbd 86dc 4f3f c4ab 1d3f
00000070: 914e a9bd 677e a23e 9408 cb3e bded f83e
00000080: 70aa ab3e 848a 913b 4d69 e9bb acf1 e7be
00000090: 30ad 133f b974 a7bd d8d8 c83e e8fc bf3e
000000a0: 4332 233e e0d7 b93e a1e8 953e e1a6 6cbe
000000b0: d4e6 75bc 73f3 07bf d7ce 63be 6254 d2bd
000000c0: 53aa e83d 0077 5b3d 0c3b 2b3f 2457 bcbc
000000d0: dbe2 dcbe d365 9d3e 90de 1c3f f0bd 6cbe
000000e0: ccae ef3e 8a98 05be e02a 1dbc 3fd8 d73d
000000f0: de77 9b3d cb14 373d 46d8 a2be 9111 93be
00000100: d889 e03e e7fb 153f 3715 b3be 7ccf 80be
00000110: 7ab4 3cbe 62f9 1abf 3cec 183e 27ee 1abf
00000120: a31a d53e d43a e03e cd00 623e abb0 4b3f
00000130: 570b a53d 103c 8c3e d120 1d3f 4ec7 033f
00000140: 0914 42be 410a 3b3e 5f90 913e 5fd7 353c
00000150: f169 8e3e b6e5 ddbd eec3 f93d b3a3 733f
00000160: 033f 133f 61d9 6c3e 59fb bfbe 4afd bbbe
00000170: 6fae cabe 9947 6dbe 0c71 633d 1b8b 353e
00000180: 4bdc f73e b2c3 023f 27d6 633e e3ff e73e
00000190: c873 45be 25d1 163d 4191 d9be 25a3 b5be
000001a0: 637e d93e a1bc 113f 6345 293f f157 33bc
000001b0: beaf f43e 7b20 413e 4101 1fbf 88e3 643e
000001c0: 1ab4 103e d301 093f 9409 fdbc 715d d83e
000001d0: 8ee3 02bc f424 d3be d968 86bd efe8 103e
000001e0: 4e12 27bd 9ccc 01bf ba8a 95bd 50d1 413f
000001f0: ac7f 423f 1d01 eebe b575 e0be 4353 d43e
00000200: 2a81 023f 422b dd3e 023c b2bd 598a 26be
00000210: dde2 8cbd 61d4 cfbe d405 dbbe 0081 25be
00000220: 7a0c 6f3e 38b3 b23a 31b2 78be f7bf a4bd
00000230: ffef 8dbe e397 b23e 16c4 f3bd 5083 19bd
00000240: be25 ec3e 7bf2 61bd 2ee5 133f e11e 213e
00000250: 19ef 41bf dbc0 03bf 998f 5a3e aa47 cf3e
00000260: 186e 0c3f 58b6 003f 4ba2 0d3f c33e 5e3d
00000270: a145 3dbc ba7e 20bc b7e2 06bf d719 1bbc
00000280: a018 49be b344 1bbd 73eb bf3e b5b7 d33e
00000290: f234 0d3f 0bd7 a1be f0af 683e be01 303e
000002a0: d5e7 db3e de68 56be 6516 01be 95c0 193f
000002b0: 7aa6 d0be e304 413e 72aa 30bd d132 c73e
000002c0: 11e9 f1be 66b8 1c3e 29d5 443d 84bc f83e
000002d0: d8c9 1fbe 3a57 bc3e 4222 5b3f 295f b53d
000002e0: 1ff7 cd3e 42ce b53e 35b9 a63d 32e3 793d
000002f0: 90dc 95be 5d56 d4be 3adc 5abe 9a37 743f
00000300: 701f 063f 789f 473f 1258 9e3d 272d 6a3e
00000310: e99a 263f 022f cdbe 0581 e83d 9821 913e
00000320: c267 30be 8eb4 9b3e 1e0d 4ebe ef33 62bc
00000330: 33d7 f9bc 3d41 a73e e5b6 8ebc eeb7 cc3e
00000340: b4ee 90bc a394 273e e6b6 32bd 52c8 92bc
00000350: 0f55 d4be ee50 d4be 2853 d4be 5a7b 2fbf
00000360: 96c3 a43d bb7b 8fbd 7d9b bdbe 63e9 6d3d
00000370: 94a7 c43f 4cdc eebd 4fc9 2c3f 1631 bfbd
00000380: d258 d4be 1954 d4be b4e8 e63d 7109 c7be
00000390: fde0 36bd 862f 863e 0658 fc3d 68b4 223c
000003a0: 4fbf 073f 1ec4 15bd c10d 773c 07ac cfbe
000003b0: 49ca 59bb 429a 03be 8a6f fabd 8cb3 2d3f
000003c0: 3318 8e3e 51a9 083d ea2f 61bc 9ef9 0a3f
000003d0: 1c20 2b3e 18e0 7bbe b575 b8bd 2e16 98be
000003e0: 0eac 92be 30f4 2e3e 10ad 0f3f 1262 9c3e
000003f0: 7699 30bf 9caf 9d3e 79a4 43bf 210e dd3e
-0.05650621 -0.19344619 -0.24098937 0.60337156 0.5579863 0.30170465 0.45745298 0.17274794
0.7458369 -0.13099751 0.80107903 -0.14138258 -0.20983762 0.03793255 -0.41779175 -0.074967474
-0.091012746 -0.31212068 -0.3110672 0.23033099 0.057322457 0.0971828 -0.16486235 -0.0925825
-0.17724256 -0.10791321 0.8119587 0.6159022 -0.082669385 0.31737062 0.39654982 0.4861888
0.3352847 0.004441561 -0.0071231485 -0.45301569 0.5768614 -0.0817656 0.3922794 0.3749764
0.15937142 0.36297512 0.29279044 -0.23110534 -0.015008647 -0.5310585 -0.22246872 -0.10270001
0.11360612 0.053580284 0.66886973 -0.02299077 -0.43141827 0.30741748 0.61277103 -0.2311933
0.46813047 -0.1304647 -0.009592742 0.105392925 0.07591222 0.044697564 -0.3180563 -0.2872434
0.43855166 0.585875 -0.34977123 -0.25158298 -0.18428221 -0.6053678 0.14933866 -0.6051964
0.41621885 0.43794882 0.22070618 0.7956645 0.080588035 0.27389574 0.613782 0.5147599
-0.18952955 0.1826563 0.2843046 0.011098712 0.27815202 -0.108348295 0.12195574 0.9517166
0.57518023 0.23129798 -0.3749645 -0.36716682 -0.39586207 -0.23171844 0.05552773 0.17728846
0.48410258 0.5107986 0.22249661 0.45312414 -0.19282448 0.03682055 -0.42493632 -0.35476032
0.42479238 0.5692845 0.661215 -0.01094626 0.4779033 0.18860047 -0.6211129 0.22352421
0.14131203 0.5351841 -0.030888356 0.4225879 -0.007988824 -0.4123913 -0.06562967 0.14151357
-0.04078894 -0.50702834 -0.073018506 0.7571001 0.7597606 -0.46485224 -0.43839803 0.41469774
0.5097834 0.43197066 -0.08702852 -0.16263713 -0.06879208 -0.4059172 -0.42777884 -0.16162491
0.23344603 0.0013633734 -0.24286725 -0.08044427 -0.27722165 0.34881505 -0.11902635 -0.037478745
0.46122545 -0.055162888 0.57771575 0.15734436 -0.7575546 -0.5146615 0.2134384 0.40484363
0.5485549 0.50278234 0.55325764 0.054259073 -0.011552245 -0.009795839 -0.5268969 -0.00946661
-0.196383 -0.037907314 0.3748432 0.41351095 0.55158913 -0.31609377 0.22723365 0.17188165
0.4295031 -0.20938441 -0.12606199 0.6005948 -0.40752012 0.1884952 -0.0431313 0.38905957
-0.47248128 0.15304717 0.048054848 0.48581326 -0.15604341 0.367853 0.8559915 0.08856041
0.402276 0.35508925 0.08140794 0.061007686 -0.29269838 -0.4147214 -0.21373072 0.9539734
0.5239172 0.77977705 0.07731642 0.22868787 0.65080124 -0.40074927 0.113527335 0.28345942
-0.1722708 0.3041119 -0.20122191 -0.013806327 -0.030498123 0.3266696 -0.017421195 0.39984077
-0.017691948 0.16365294 -0.043631457 -0.017917786 -0.41471145 -0.41467994 -0.41469693 -0.68547595
0.080451176 -0.070060216 -0.3703269 0.058083903 1.5363641 -0.11663112 0.6749467 -0.09335534
-0.41474015 -0.4147041 0.11274853 -0.3887439 -0.04464816 0.26208133 0.12321477 0.0099307075
0.5302629 -0.036563985 0.015078963 -0.40560934 -0.0033232144 -0.12851813 -0.12228306 0.6785209
0.27752838 0.033364598 -0.013744334 0.54287136 0.16711468 -0.24597204 -0.09006826 -0.29704422
-0.28646892 0.17085338 0.5612345 0.30543572 -0.6898416 0.30798042 -0.7642284 0.43174842

l1.bias f4 [8]
00000000: 0320 0b3f ffee 1a3f cb0e 743f 1152 d43e
00000010: adfa 543f e587 1d3f 1188 023f 45c3 fc3e
0.5434572 0.6052093 0.9533507 0.41468862 0.83195 0.61535484 0.5098887 0.4936773

l2.weight f4 [8, 8]
00000000: c140 f93d de02 013f 440c 983f f01d e7be
00000010: 8fef 273f a183 c83f 6c0c 82bf ee82 f3bc
00000020: 71e4 20be c5bd 123f 6012 0abf 8a2f fb3e
00000030: 6b77 173f a8ab 3dbf eb01 573f 638c 89bf
00000040: 33c4 81be e5d1 4e3f cb28 483e a013 66bf
00000050: a593 c53f 8be3 07bf 2dd4 febe 6fc6 c4bd
00000060: 2f2f 633f b26b a5bf c5af ab3f af87 813f
00000070: 9b05 243c 6b55 24bf ce83 cb3d cc35 ac3f
00000080: e9cd 283f 25f9 87bd b007 153f 62f2 7dbf
00000090: 1542 743f b8f8 27bf 80ca 5bbf f456 253f
000000a0: 7a69 aabe 99c6 a13e ac8b 07be 40ca ff3c
000000b0: afe6 02be 9684 dfbd 4d34 33be e0d5 5ebc
000000c0: b21f 00bf f346 9c3f 97ff 30be 0966 da3e
000000d0: d7e0 5c3f 0f63 c03f e292 0a3f 5fe9 2ebf
000000e0: a1d8 bb3f cab7 da3e 9da8 07bf d63a c7bc
000000f0: d106 9bbe bc5a 223e 7991 a33f d224 cb3f
0.12170554 0.50395 1.1878743 -0.45140028 0.6559991 1.566517 -1.0160041 -0.029725518
-0.15712143 0.57320815 -0.5393429 0.49059707 0.5916659 -0.7409005 0.839873 -1.0745968
-0.25345 0.80789024 0.19546811 -0.89873695 1.5435683 -0.5308158 -0.49771252 -0.09608161
0.8874387 -1.2923491 1.3413016 1.0119532 0.010011102 -0.6419284 0.09937249 1.3453918
0.65939194 -0.066393174 0.58214855 -0.9919797 0.95413333 -0.6561389 -0.85855865 0.64585805
-0.33283597 0.3159683 -0.13236874 0.03122437 -0.12783311 -0.10913961 -0.1750042 -0.013600796
-0.50048363 1.2209152 -0.17285 0.42655972 0.8628058 1.503023 0.54130375 -0.68324846
1.4675485 0.42718345 -0.5299166 -0.024320047 -0.30278638 0.15854925 1.277877 1.5870612

l2.bias f4 [8]
00000000: f80e 443f 08c6 52be 2e00 4f3f e008 d33e
00000010: e83f 193e f781 0dbe c33e e53e 2d2f da3e
0.7658534 -0.20583355 0.8085965 0.4121771 0.14965785 -0.13819109 0.44774446 0.42614117

l3.weight f4 [6, 8]
00000000: 1a5d 85bf 53ae 74be ad48 48bf 07e7 5d3f
00000010: 0221 cfbe 6040 593c 7a1b 84bf 4bbf ec3e
00000020: 4c43 11be 3311 8ebf 3229 32bf 6bc1 72bf
00000030: ee65 a5bf baf1 eebd ab17 aa3e 9d79 3b3f
00000040: 3af6 98bf a94d 703f b20a a43e b11e 8cbf
00000050: 2079 8dbf a019 db3c 4dba 123f 1758 7cbe
00000060: d8b0 ef3e 3885 91bf 7afc 5a3f ba8b dcbf
00000070: e469 bebd 082d 88bd bd8c 043f 3bc4 50bf
00000080: 5aab 9b3d 5d0d 34bf b882 ea3e 4ae9 513e
00000090: 15c6 b33f ac8a 8ebd 7d2c a0bf e335 84be
000000a0: c1cc 0a3f fd7e 4ebf 2da0 93bf 7ba6 e53e
000000b0: 4150 b8bf baae 6a3e 45c3 4a3e 1f7e 99bf
-1.0419037 -0.23894624 -0.78235894 0.86680645 -0.4045487 0.013259977 -1.0320885 0.46239695
-0.14185828 -1.1098999 -0.6959411 -0.9482638 -1.2921731 -0.116671994 0.33221182 0.7323244
-1.1950142 0.938685 0.3203941 -1.0946866 -1.105259 0.026745617 0.5731552 -0.24642979
0.4681461 -1.136878 0.855415 -1.7230141 -0.09297541 -0.06649214 0.5177725 -0.81549424
0.07601042 -0.7033289 0.45802855 0.20499149 1.4044825 -0.06960043 -1.2513577 -0.25822362
0.5421868 -0.8066252 -1.1533257 0.44853577 -1.4399492 0.22918215 0.19801052 -1.1991614

l3.bias f4 [6]
00000000: 5401 90be a314 453e 2641 9fbe 53ce 10be
00000010: e390 62bd 20b7 b03d
-0.28126013 0.19246154 -0.31104392 -0.14141206 -0.055313956 0.08628678
