data.pth (torch, 6359 bytes, 6 tensors)

l1.weight f4 [8, 79]
000000 3d 55 38 3f cc 07 20 3f 49 f3 12 bf 75 b1 0e bf
       0.72005063 0.625119 -0.57402474 -0.5573953
000010 5f 78 02 be c0 7c be 3e cd 27 26 3f 35 67 80 bf
       -0.1274123 0.37204552 0.6490448 -1.0031496
000020 cf 79 32 3f 3d 14 80 3f 3a 34 03 3f f8 42 88 be
       0.69717115 1.0006176 0.51251566 -0.26613593
000030 60 4b 46 be f0 69 0a bf 99 1e ee be 5c 94 84 3d
       -0.19364691 -0.540679 -0.4650772 0.0647361
000040 e5 06 d9 3e 53 b1 0a bf 6c f7 72 3e ed ca 36 be
       0.42388073 -0.54176825 0.23727196 -0.17850848
000050 8a 43 27 3f 9b d4 dd 3e db 85 a6 be 49 a3 da be
       0.6533743 0.43326268 -0.32524 -0.42702702
000060 bb d4 af 3e 8d 06 e5 be fc f7 70 3e 49 eb 71 bd
       0.34341988 -0.4473156 0.23532099 -0.059062276
000070 8a fd 92 3d 7a 88 79 3e af b7 91 be b3 85 f8 3e
       0.07177265 0.24368468 -0.28460452 0.48539504
000080 28 ac 41 3e 99 4e 33 3f aa c2 c1 3e 50 a8 2b 3f
       0.18913329 0.70041806 0.3784383 0.670537
000090 24 97 64 3f 55 96 52 3f f6 3e 77 3f 93 21 7a 3f
       0.8929312 0.8226064 0.96580446 0.9770748
0000a0 74 ce e3 bd 7c ca 53 bf c1 9c fe 3c 76 6e ad be
       -0.11123362 -0.8273084 0.031080605 -0.33873338
0000b0 d0 1f 43 bf ce 06 65 bd 61 57 8b 3e 77 2b 1c be
       -0.7622042 -0.055914693 0.27215102 -0.15250956
0000c0 ef a6 e6 3e 01 42 24 be 2d c9 fb be b6 8d 24 bf
       0.45049235 -0.16040803 -0.49176922 -0.64278734
0000d0 db 4c 4d bf 4c 70 99 bd 0e 22 02 3f 09 ad 67 3f
       -0.801954 -0.07492122 0.50833213 0.90498406
0000e0 a3 06 80 3f 89 a8 1f be b8 f4 1b bd 46 b3 bc be
       1.0002025 -0.15591635 -0.03807518 -0.36855525
0000f0 fd 19 5c be da a7 47 3e a1 4b d3 3e 4c 5d 53 be
       -0.21494289 0.19497624 0.41268638 -0.20641059
000100 27 a1 6b 3e 56 4e 26 3f 7e fe e7 3e c1 7a a6 3e
       0.23010693 0.6496328 0.4531135 0.3251553
000110 a0 4d d9 be 1b 6f 1c 3f e1 26 61 3c 14 48 60 be
       -0.42442036 0.61107033 0.01374218 -0.21902496
000120 bc 0e ff 3e f2 aa 0a be a9 c6 08 bd 6a c9 0d be
       0.4981593 -0.13541773 -0.033392582 -0.13846365
000130 c9 c5 d1 3e a4 f3 cc 3f f0 a2 ba be 33 7e 36 bd
       0.4097121 1.6011853 -0.36452436 -0.044553947
000140 0e f1 bb bd ba 8f 23 3f bf fa 11 3f e7 3d 0a 3f
       -0.09176837 0.63891184 0.57023233 0.54000705
000150 39 03 b1 bc 74 30 81 3f d0 c6 52 3f dd d1 9a 3d
       -0.021607982 1.0092912 0.82334614 0.075595595
000160 7e 60 22 be 77 47 75 bd 94 90 62 3f fe ff 70 3f
       -0.15857121 -0.059882607 0.8850186 0.94140613
000170 2d 5a 08 3e 69 f2 1a 3f 18 b9 c9 3c 7d 1d 90 3e
       0.1331565 0.6052614 0.024624392 0.28147498
000180 b3 4e f0 be 79 3a d6 3e 05 0f b3 bd f9 73 d4 bc
       -0.46935043 0.41841486 -0.08743099 -0.025934206
000190 5f 30 fa 3e 7c 91 b8 3e c5 58 00 3f 76 c2 57 3f
       0.4886503 0.36048496 0.5013545 0.842811
0001a0 42 5b 45 be 18 c1 c1 bd 26 95 d4 3e 13 09 06 bd
       -0.19273093 -0.09460658 0.4152004 -0.032723498
0001b0 38 29 4a be aa 05 8a 3e 53 bf e4 be 52 02 26 be
       -0.19742286 0.26957446 -0.4467722 -0.16211823
0001c0 f2 9a 1c 3f 78 7a af 3e 8b 62 40 3f 63 98 8c be
       0.6117393 0.34273124 0.75150365 -0.27460012
0001d0 ba 4d 8e be 64 e2 80 be 4a 73 a8 be d4 f1 52 bf
       -0.27793676 -0.25172722 -0.3290046 -0.8240025
0001e0 4d 90 82 bf 7b ef 4d bd 49 aa a7 be c0 09 57 bf
       -1.0200287 -0.050277214 -0.32747105 -0.8399925
0001f0 92 03 3d bd 7e 58 36 bf e2 3e e6 3e 3d c3 2f 3e
       -0.046145983 -0.7122878 0.4496985 0.17164321
000200 c6 55 fe 3e 0f ee eb be af 60 20 3f 3b 22 4e bf
       0.49674815 -0.46080062 0.6264753 -0.8052098
000210 ad 34 0a 3f c8 27 58 3e 58 fc b9 be 72 de 66 be
       0.53986627 0.21108925 -0.36325336 -0.22545794
000220 ba 90 fa 3e 9a b3 0e 3e d7 93 cd be 6b 4a e4 3e
       0.48938543 0.139357 -0.40151855 0.44588026
000230 6e 37 e5 3e 7c b1 53 3f a8 25 c6 3e 57 c5 23 bf
       0.44768852 0.82692695 0.38700604 -0.6397299
000240 2c be 32 3f ed ef cc 3e 90 9a 14 be d8 e3 18 3f
       0.6982143 0.400268 -0.14512086 0.5972266
000250 34 0b b1 3d 86 dc 42 bf 74 3f 9c 3e 4a 29 82 bd
       0.08644715 -0.7611774 0.3051716 -0.063555315
000260 3c d3 a9 3e 31 97 84 be 03 f3 0c 3f 39 f9 bd 3e
       0.33168972 -0.258966 0.55058306 0.37104204
000270 8f 02 93 3f 40 08 0d bf 73 39 9e 3d 19 37 38 3e
       1.1485156 -0.55090714 0.07725801 0.17989768
000280 51 16 bb bd f5 62 09 3f ee 07 84 3e 35 15 68 be
       -0.09135116 0.5366662 0.257873 -0.2266434
000290 d2 5c b7 3e 46 3d a5 be b4 99 04 3d 2e a2 47 3e
       0.35813004 -0.3227331 0.032373145 0.1949546
0002a0 e1 5f 7a 3d cb 12 59 bd 76 bf af bd 5f 89 42 3f
       0.061126594 -0.052996438 -0.0858144 0.7599086
0002b0 d4 ac 1b 3f f7 3d a7 be 1e df b1 3e ce 6c 4e 3e
       0.6081059 -0.32664463 0.34740537 0.20158693
0002c0 ca 89 23 3f 25 2f 3f 3f 4b 54 19 3e 62 8c 5f bd
       0.63882124 0.7468131 0.14973561 -0.05457724
0002d0 43 db 0f 3f 41 34 4e 3f 6a 36 11 3e df 22 83 be
       0.5619394 0.80548483 0.14180914 -0.25612542
0002e0 5f 48 03 be 82 c2 14 3f 25 2d 1b 3e 06 e0 71 be
       -0.12820576 0.58109295 0.1515394 -0.23620614
0002f0 03 5b a6 3e c3 97 00 bf 05 87 8e bd 49 50 bf be
       0.3249131 -0.5023157 -0.06959347 -0.3736594
000300 d3 70 b6 3e 32 53 eb 3e cc 77 5c 3e 44 d8 7b 3e
       0.35632953 0.4596191 0.21530074 0.24594218
000310 9b b6 44 3e f5 64 2e 3e 22 b1 10 bf ed 16 cf 3e
       0.19210283 0.170307 -0.56520283 0.40447178
000320 b6 63 f1 bd f4 45 ee be f2 46 4c bf 74 da b8 be
       -0.117865965 -0.46537745 -0.79795754 -0.36104167
000330 f6 14 b9 be 12 fa 1e 3f 9b b7 de 3d 15 58 19 3f
       -0.36148804 0.62100327 0.10874864 0.5990003
000340 d1 0b b7 be 35 56 1d 3f ca 47 34 bf 0e 87 be 3d
       -0.35751203 0.61459666 -0.7042204 0.093031034
000350 28 82 8e bc 26 72 8e 3e 6a 42 65 3e ae fe 98 3e
       -0.017396048 0.27821463 0.22388616 0.29881805
000360 da 4b 8b 3f e8 7c f5 be 64 19 fb 3e 76 3d c2 3c
       1.0882523 -0.47946858 0.4904281 0.023710947
000370 73 55 f5 3d c7 61 08 3f ab ba 18 bf 89 03 02 3f
       0.11979189 0.53274196 -0.5965983 0.50786644
000380 a4 a1 00 3e a0 6f 47 bd 9c 9a 2e be 4e 5d a5 3d
       0.12561661 -0.04869044 -0.17051166 0.08074437
000390 0e 8e 11 bf 47 ba c3 3e 2c 25 c4 3d 72 3c 92 be
       -0.56857383 0.38228056 0.095774025 -0.2856174
0003a0 c0 67 df 3e 7d 7a 01 3e 65 8e 83 bd e0 50 7b bf
       0.43633842 0.12644382 -0.06423644 -0.9817028
0003b0 9d 7e 10 3f aa 1b 8e 3e d7 2c 38 3e 0a b1 ce be
       0.56443197 0.2775548 0.17985855 -0.40369445
0003c0 e0 a8 07 be 3f c8 d1 3e cd 5b fd bc 50 69 30 3f
       -0.13248014 0.40973088 -0.030927563 0.68910694
0003d0 15 b9 72 bf 68 b3 62 3e 0a 48 95 3e 00 8f bf 3e
       -0.9481366 0.2213875 0.29156524 0.37413788
0003e0 87 bf ca be 3e df e1 be ea 55 0d bf d2 dc 74 3e
       -0.3959925 -0.44115633 -0.5520922 0.23912361
0003f0 6c f4 9f bd b3 aa d3 3e c5 f1 3b 3f 84 c9 ce bd
       -0.07810292 0.4134117 0.73415786 -0.1009703

l1.bias f4 [8]
000000 d8 a8 80 3f 19 79 61 3f ac 12 55 3f d2 66 77 3f
       1.0051527 0.88075405 0.83231616 0.96641266
000010 44 58 6a 3f d1 1c 19 3f d0 ea 3d 3f d3 bf 3a 3f
       0.9154093 0.59809595 0.7418642 0.7294895

l2.weight f4 [8, 8]
000000 10 e8 8d be c9 ed da 3e 68 31 e9 3f bb 28 5a bc
       -0.27716112 0.4275954 1.8218203 -0.013315375
000010 3e 25 3c 3f 9c 7b e7 3f de f4 a5 3f ac ef 91 bf
       0.7349433 1.8084598 1.2965353 -1.1401267
000020 a7 90 39 3f 13 d0 58 3f 4d 01 74 3f eb f7 7a 3f
       0.72486347 0.84692496 0.95314485 0.9803454
000030 2d ca 40 3f 42 e0 1b bf 20 26 f4 be 92 50 3a bf
       0.75308496 -0.60889065 -0.47685337 -0.7277919
000040 8f ca 2e 3e a4 30 c6 3f a7 21 47 bf 75 20 2d 3f
       0.17069457 1.5483594 -0.77785724 0.6762765
000050 25 7e 16 3f e0 a6 86 3f da 49 ca bf a7 d6 ae 3e
       0.5878623 1.0519676 -1.5803788 0.34148142
000060 ad bb e2 be df ca f1 3f b3 36 da 3f 50 e6 e3 be
       -0.4428381 1.8890036 1.7047943 -0.44511652
000070 42 92 38 bf 8c 04 70 3f 8a 7b 18 bf d8 e5 c6 3f
       -0.7209817 0.9375694 -0.59563506 1.5538893
000080 d2 d9 82 3f ca 0a 1a 3e a9 ca cf bf b7 1d 27 3f
       1.0222723 0.15043178 -1.6233722 0.65279716
000090 81 14 01 3f a4 63 e9 3e 73 fa c4 3e 79 30 7d 3f
       0.5042191 0.45583832 0.38472328 0.9890209
0000a0 1a 8c 79 be 61 63 af be ae 24 ae 3d 78 87 b9 bd
       -0.24369851 -0.34255508 0.0850309 -0.09059042
0000b0 57 3a 9e b8 6d a5 94 be 9c 26 85 3e 13 8c 1d 3e
       -7.544894e-05 -0.2903246 0.2600602 0.15385465
0000c0 30 71 06 40 12 6a db 3e 80 c5 64 bd 07 81 bd 3f
       2.1006584 0.42854363 -0.055852413 1.4805001
0000d0 a3 ab 81 3f b7 90 bc bf 7a 06 af 3f cf 9b 8f 3e
       1.0130504 -1.4731663 1.3673851 0.2804856
0000e0 3c d6 88 bf ee d3 45 bf b3 ee 46 bc b8 d0 b0 3f
       -1.0690379 -0.77276504 -0.012141871 1.3813696
0000f0 5f e9 c3 3f 84 26 4a 3e e9 05 34 bf df 69 c0 bf
       1.5305594 0.19741255 -0.7032152 -1.5032309

l2.bias f4 [8]
000000 63 e5 42 be 33 1f a1 be 1a 8c 03 3e 89 5f 50 3f
       -0.19032817 -0.31469116 0.12846413 0.81395775
000010 4f 04 2b 3d 1c 62 94 be 77 7e 62 3f 88 78 41 3f
       0.041752156 -0.28981102 0.8847422 0.7557454

l3.weight f4 [12, 8]
000000 88 c7 fb bf 54 fe 1a bf 42 dc 39 3e 84 b5 6a 3f
       -1.9670267 -0.60544324 0.18150428 0.9168322
000010 0f 4f 95 be f1 73 a0 3e 1c 99 23 be ba 88 2a bf
       -0.2916188 0.31338456 -0.15976375 -0.6661488
000020 a0 e2 0c bf 64 87 1d 3e cd d9 d1 3e a4 ae 22 bf
       -0.550333 0.15383679 0.4098648 -0.6354773
000030 6f 8b 92 be 1d 24 bc be 8e 69 b6 3d 06 c0 92 bd
       -0.28622004 -0.36746302 0.08906852 -0.07165532
000040 25 4e 09 c0 0c ee 1b c0 9d ff f7 bf 08 54 00 3d
       -2.1453946 -2.4364042 -1.9374882 0.03133014
000050 5d 9c b4 3f e1 68 60 3e 9e ad 46 3f b3 6b 1a bf
       1.4110218 0.21915008 0.7760867 -0.60320586
000060 73 57 ad bf e0 93 67 bd 8a 72 ff 3d ff f0 0e c0
       -1.3542312 -0.05653751 0.124730185 -2.2334592
000070 87 a6 f6 3e d3 ee 56 3e eb 37 45 3e 94 a2 a4 3f
       0.48173925 0.20989542 0.19259612 1.2862115
000080 43 89 14 3f 5d 23 d6 bf 7e 32 b8 bf 0b 42 ff 3e
       0.58021945 -1.6729542 -1.4390409 0.49855074
000090 39 df 01 c0 a8 d1 9c 3e f7 f0 c5 bf 4a 35 8c bf
       -2.0292494 0.30628705 -1.5464162 -1.0953763
0000a0 a5 f7 02 3f ee 64 1a c0 93 9c d5 bf c7 12 c4 bf
       0.51159126 -2.4124103 -1.6688408 -1.531823
0000b0 a8 b4 56 3f a3 b8 03 be 18 d8 69 3e b4 bc 03 bf
       0.8386941 -0.12863402 0.2283634 -0.51459813
0000c0 93 4f 37 be b5 ab fc bf 30 6c 4c 3f 40 b1 03 3f
       -0.17901449 -1.9739901 0.7985258 0.5144234
0000d0 2a b8 fe 3e 7f f9 97 3e 83 b7 e2 bf e7 57 aa bf
       0.4974988 0.29682538 -1.7712253 -1.3308076
0000e0 b8 b1 ec 3e 43 59 32 be 89 2a 7b bf b5 2b 0d bd
       0.4622934 -0.17416863 -0.9811178 -0.03446551
0000f0 ee d9 9b bf 5c 9b 3b be b0 a7 65 be 49 ea eb bf
       -1.2175882 -0.18320984 -0.22427249 -1.8430873
000100 60 78 87 3d bb 76 02 3e 08 c8 05 bf ac 4d 4e bf
       0.066147566 0.12740605 -0.5225835 -0.8058727
000110 cc a1 1e c0 af 97 90 3e b6 9d b7 be 1f e0 82 3f
       -2.4786253 0.28240725 -0.3586251 1.0224646
000120 3f af 39 3d f5 a3 92 3e be 73 94 3e 42 c1 4a 3e
       0.045333143 0.28640714 0.28994554 0.19800285
000130 6c 68 1c c0 bd 91 24 be a1 9d be bf 4c 73 95 be
       -2.4438734 -0.1607122 -1.4891855 -0.29189527
000140 40 a4 15 bf b7 a3 2b 3f 3f 50 fd bf 09 17 ca bf
       -0.5845375 0.67046684 -1.9790114 -1.578828
000150 58 2e e7 ba b3 32 ee bd 22 4a 4f 3f 33 01 9e bf
       -0.0017637713 -0.11630764 0.8097249 -1.2344116
000160 51 da 26 c0 75 44 25 3f 69 5d 08 3f e2 b5 9e bf
       -2.607075 0.6455758 0.5326753 -1.2399256
000170 ea 08 0a 3f 52 0c 82 bc f5 f9 9f 3e de 3f d6 be
       0.5391985 -0.015875015 0.3124539 -0.41845602

l3.bias f4 [12]
000000 94 6e 08 3e 83 27 c1 be ec b4 17 3f 34 c4 aa bd
       0.13323432 -0.37725458 0.5926044 -0.08338204
000010 02 83 bf bd 71 bc ca 3d f8 ed f8 bc d2 cd ee bd
       -0.0935116 0.098992236 -0.03038691 -0.11660351
000020 89 42 64 be 7b f1 87 be 93 b2 2f 3f ca 49 35 bf
       -0.22291006 -0.26551422 0.6863186 -0.7081572
