data.pth (torch, 6039 bytes, 6 tensors)

l1.weight f4 [8, 74]
0	0xbea32b05	-0.3186876
1	0xbebaa6de	-0.36455435
2	0x3f48180f	0.7816171
3	0x3ec17323	0.37783155
4	0x3eb418fe	0.35175318
5	0xbe44b19c	-0.19208378
6	0xbe5b9624	-0.21443993
7	0x3f8887be	1.0666425
8	0xbea3eddf	-0.3201742
9	0xbf1a00c8	-0.6015744
10	0xbeb4a4fc	-0.35282123
11	0x3f439f49	0.76414925
12	0x3f37a621	0.7173787
13	0x3eb8ad74	0.36069834
14	0x3f0febe2	0.56219304
15	0xbeee1960	-0.46503735
16	0x3ed19678	0.4093511
17	0x3f0f2238	0.5591159
18	0xbe82f433	-0.25576934
19	0x3ec82390	0.39089632
20	0x3f1bcbad	0.6085766
21	0x3d83d7a3	0.06437614
22	0x3eaaf255	0.3338801
23	0xbe1d6421	-0.15370227
24	0x3ebbc1b0	0.3667121
25	0x3e906b0c	0.2820667
26	0xbe72d002	-0.23712161
27	0x3e7ebbd5	0.2487634
28	0xbf1d66b8	-0.6148486
29	0xbe65da0e	-0.22446463
30	0xbed9aba5	-0.42513767
31	0x3ecc0d14	0.39853728
32	0xbd204a1b	-0.039133172
33	0xbf247cce	-0.64252937
34	0xbf05dc3b	-0.5228917
35	0xbf12ec25	-0.5739158
36	0xbf219516	-0.6311811
37	0xbed74060	-0.42041302
38	0xbef37d7b	-0.47556672
39	0xbe4b215e	-0.19836947
40	0xbe5deeeb	-0.21673171
41	0xbe77825c	-0.24170822
42	0xbea9e5a7	-0.33183023
43	0xbf059638	-0.5218234
44	0x3e810f0c	0.25206792
45	0xbdc0b361	-0.09409214
46	0x3eb8cfa7	0.36095926
47	0xbd68a84c	-0.056801125
48	0x3f04a2a3	0.51810664
49	0xbefc42a5	-0.49269596
50	0x3efa76ca	0.48918754
51	0xbda803c1	-0.08203841
52	0xbf25fefa	-0.6484219
53	0xbf2b2a69	-0.6686159
54	0x3eb73548	0.35782838
55	0x3ee7f1c2	0.45301634
56	0xbe542a2d	-0.20719214
57	0x3ebdea22	0.37092692
58	0xbd99e0b2	-0.0751356
59	0x3d37b7f5	0.04485317
60	0x3ea84953	0.32868442
61	0xbf033aed	-0.5126179
62	0xbdbb9286	-0.091588065
63	0xbe3ab4cc	-0.18233031
64	0xbd17ef34	-0.037093356
65	0x3f28f100	0.65992737
66	0xbda577ef	-0.08079516
67	0xbeeb1970	-0.45917845
68	0x3e978066	0.29590148
69	0xbeba4739	-0.36382464
70	0x3ed210e1	0.41028503
71	0x3f0aa275	0.5415414
72	0xbf4ad2ae	-0.7922772
73	0x3e10acdf	0.14128445
74	0x3e4c7bdd	0.19969125
75	0x3e4b6e65	0.19866331
76	0xbe8c309c	-0.27380836
77	0x3e737217	0.2377399
78	0xbea003b8	-0.31252837
79	0x3e8d1759	0.27556875
80	0xbe27bf3c	-0.16381544
81	0xbf142c92	-0.5788051
82	0x3ec56a0f	0.3855748
83	0x3f038522	0.5137502
84	0x3ebea9ea	0.3723901
85	0xbef226db	-0.4729527
86	0xbf072848	-0.5279584
87	0x3f1a0b34	0.60173345
88	0x3e6e0f7f	0.23248099
89	0xbe2f2231	-0.17102887
90	0x3eb4090a	0.35163146
91	0x3f37586f	0.71619314
92	0x3e4efd0c	0.20213717
93	0x3da5a8f3	0.08088865
94	0x3f040307	0.5156712
95	0x3e1bb5de	0.15206096
96	0x3e1a4e32	0.15068892
97	0x3edee0b0	0.43530798
98	0xbe7b8172	-0.24561098
99	0x3e90279a	0.28155214
100	0x3e9bfe60	0.3046751
101	0x3eebc2e5	0.4604713
102	0x3f56c6a1	0.83896834
103	0x3ecc8c36	0.39950722
104	0xbeddbb03	-0.4330674
105	0x3eb4c737	0.3530824
106	0x3df41e0e	0.11919795
107	0x3e91d774	0.2848469
108	0x3ed555d9	0.4166706
109	0x3ec07296	0.37587422
110	0x3ec995c3	0.39372072
111	0xbe5e3a6f	-0.21701978
112	0xbe247ecc	-0.16063994
113	0x3de421b1	0.111392386
114	0xbe2c7050	-0.16839719
115	0xbdef8ded	-0.11696992
116	0xbdda14c2	-0.106484905
117	0x3e0d32ac	0.13788861
118	0xbd8b32c4	-0.06796792
119	0x3f1c95d9	0.6116615
120	0xbe823316	-0.254296
121	0xbea0ddbd	-0.31419173
122	0x3e348499	0.17628707
123	0x3d82f0d4	0.063935906
124	0xbe795905	-0.24350365
125	0x3e686f38	0.22698677
126	0x3ed69c60	0.4191618
127	0x3f0866e9	0.5328203
128	0xbe540c48	-0.2070781
129	0x3f96907e	1.1762846
130	0xbe45024c	-0.19239157
131	0x3e377ceb	0.17918746
132	0xbe852086	-0.26001376
133	0x3e7b8891	0.24563815
134	0xbd24cf64	-0.040236846
135	0xbed3b09c	-0.4134568
136	0x3c4e2742	0.012582602
137	0x3e0010b6	0.12506375
138	0x3f386997	0.7203612
139	0xbe5ea61d	-0.21743055
140	0x3e876412	0.26443535
141	0xbe55eb27	-0.20890485
142	0x3e5d2983	0.21597867
143	0x3e73a279	0.23792447
144	0xbe4f52f6	-0.20246491
145	0xbe6938ef	-0.22775625
146	0x3f898ae6	1.0745513
147	0x3eaadc20	0.33371067
148	0xbe54e1d4	-0.20789272
149	0xbe770078	-0.24121273
150	0x3ecec3fb	0.40383896
151	0xbeaa9b61	-0.3332167
152	0xbe6d0bc1	-0.23149015
153	0xbd8fecac	-0.070275635
154	0x3f06fcd6	0.5272955
155	0x3f30972d	0.68980676
156	0xbe988aa1	-0.29793265
157	0xbee5e1e1	-0.44898894
158	0xbe5692b7	-0.20954405
159	0x3e6af200	0.22943878
160	0x3ea11f0c	0.31469
161	0x3f89a5ba	1.0753701
162	0xbd8dd9ad	-0.06926284
163	0x3e864aa2	0.26228815
164	0xbd87ecd4	-0.06636968
165	0xbeda3386	-0.42617434
166	0xbe753a25	-0.23947962
167	0xbe4cfc2f	-0.20018075
168	0x3f58adb5	0.84640056
169	0x3e4d67c6	0.20059118
170	0x3eaf4a40	0.34236336
171	0x3d484d90	0.048902094
172	0xbed65d58	-0.4186809
173	0x3ef78763	0.4834548
174	0xbdc0e8da	-0.09419413
175	0x3f154b04	0.5831759
176	0xbe8b60c0	-0.27222252
177	0xbda32a06	-0.07967
178	0x3f060472	0.52350533
179	0xbdaa68a5	-0.083207406
180	0x3e18ddcb	0.14928357
181	0xbee5e5eb	-0.44901976
182	0xbee5e42a	-0.44900638
183	0xbee5e7ca	-0.44903404
184	0xbee5e129	-0.44898346
185	0x3ee865a1	0.45390037
186	0x3e962518	0.29325175
187	0x3eca02da	0.394553
188	0x3ed1bc79	0.40964106
189	0x3f21a3f3	0.6314079
190	0x3e8edbc3	0.2790204
191	0x3e43c7a4	0.19119126
192	0xbe6e82ee	-0.23292133
193	0xbe40bc8e	-0.18821928
194	0xbeb5a79f	-0.35479447
195	0x3e87e3e8	0.26541066
196	0xbec4fc41	-0.38473704
197	0x3f31dab7	0.6947436
198	0x3e27d37a	0.16389266
199	0xbc54da95	-0.012991567
200	0xbee5e348	-0.44899964
201	0xbee5deb0	-0.4489646
202	0xbe6a4d28	-0.22880995
203	0xbe2dab1d	-0.16959806
204	0x3e8bcdb7	0.27305385
205	0xbe38126a	-0.17975774
206	0x3e89a505	0.26883712
207	0x3d317df0	0.043332994
208	0xbe8c82b6	-0.27443475
209	0x3f003e64	0.500952
210	0x3e5056e3	0.20345645
211	0x3ca1dd5e	0.019758876
212	0xbf2202e3	-0.63285655
213	0x3eac1142	0.33606917
214	0xbd7171cd	-0.05894642
215	0x3ed238e7	0.41059038
216	0x3e7fe469	0.24989475
217	0xbe1abb4a	-0.15110508
218	0x3e9c3d2b	0.30515417
219	0x3e107e0d	0.14110585
220	0xbf316e72	-0.6930915
221	0x3f1326f4	0.5748131
222	0x3ecc4814	0.3989874
223	0x3f002c8c	0.50067973
224	0xbeabd25e	-0.33558935
225	0x3e87d80f	0.26532027
226	0x3ed531f5	0.41639677
227	0xbe34ebe5	-0.17668112
228	0x3e66da4e	0.22544214
229	0xbf336c6e	-0.70087326
230	0x3eae4e4b	0.34044108
231	0x3f32b974	0.6981423
232	0x3ed545eb	0.41654906
233	0x3f2fc9c0	0.6866722
234	0x3f4395d3	0.7640049
235	0xbed2c20d	-0.41163674
236	0x3eb4e55b	0.35331234
237	0xbcfd5d31	-0.030928226
238	0x3eaeb9c1	0.34126094
239	0xbe516191	-0.20447375
240	0x3f03a282	0.5141984
241	0x3e9a98cd	0.30194703
242	0xbe30e841	-0.17276098
243	0x3e784ea6	0.24248752
244	0xbe8cde5c	-0.27513397
245	0xbe70b0a3	-0.23504882
246	0x3e8059ba	0.25068456
247	0xbd933882	-0.071885124
248	0xbe1b247f	-0.15150641
249	0xbda817f6	-0.08207695
250	0xbf3f499e	-0.74721706
251	0xbdd71f8c	-0.10504064
252	0x3f0945d2	0.5362216
253	0x3ead257a	0.33817655
254	0x3e86f49d	0.263585
255	0x3f0ef50e	0.55842674

l1.bias f4 [8]
0	0x3f2f1894	0.6839688
1	0x3f20e067	0.6284241
2	0x3ee5ddca	0.44895774
3	0x3f5f6857	0.87268585
4	0x3f72af17	0.94798416
5	0x3f17df19	0.59324795
6	0x3f500873	0.8126289
7	0x3f18bc1d	0.5966204

l2.weight f4 [8, 8]
0	0xbf05cce2	-0.5226575
1	0x3f4808e5	0.7813857
2	0x3f414446	0.754948
3	0xbf680398	-0.90630484
4	0x3fd11ff6	1.6337879
5	0x3fb41a0b	1.4070448
6	0xbf1f2b9e	-0.6217593
7	0x3f281fed	0.65673715
8	0xbf73ff3f	-0.9531135
9	0x3f6ac03a	0.91699564
10	0xbf918fd6	-1.137202
11	0x3f8939cd	1.0720764
12	0x3f339814	0.7015393
13	0xbe939988	-0.28828073
14	0x3fd3c9e2	1.6545985
15	0xbf217c26	-0.6308006
16	0xbe8dc229	-0.27687195
17	0x3f815f46	1.01072
18	0xbf825e50	-1.0185032
19	0x3f0a37b0	0.5399122
20	0x3f739352	0.9514667
21	0x3f2c49d2	0.6730014
22	0x3fb0d0f4	1.3813767
23	0xbf6fb582	-0.93636334
24	0x3f06ae87	0.5261006
25	0x3ea0e910	0.31427813
26	0xbf4cab31	-0.7994872
27	0x3fdc260b	1.719911
28	0x3fa337dd	1.2751423
29	0x3f331c93	0.69965476
30	0xbe857ea3	-0.2607318
31	0xbf083345	-0.5320323
32	0x3fc3885a	1.5275986
33	0xbe992473	-0.2991062
34	0x3efcf004	0.49401867
35	0x3fd9a5b5	1.7003695
36	0x3f35dc95	0.71039706
37	0xbf48a37e	-0.7837447
38	0xbf58c22e	-0.84671295
39	0x3f04a51d	0.5181444
40	0xbd94e0dc	-0.07269451
41	0x3f9087eb	1.1291479
42	0xbf92946e	-1.1451547
43	0x3f167022	0.5876485
44	0xbf4cfa7b	-0.800697
45	0x3fb7536c	1.4322333
46	0x3db19cdc	0.08672497
47	0x3fca7f79	1.5820152
48	0x3fc27199	1.5190917
49	0x3f733879	0.95008045
50	0x3e5badcc	0.21453017
51	0xbfb8d63c	-1.4440379
52	0x3e33c521	0.17555667
53	0xbf837624	-1.0270429
54	0x3f913d3d	1.1346813
55	0x3f5e88e6	0.8692764
56	0x3f348646	0.70517385
57	0xbf329cd7	-0.6977057
58	0x3ef4c1fa	0.47804242
59	0xbf371a3e	-0.7152442
60	0x3f3bb366	0.73320615
61	0xbf001c5e	-0.50043285
62	0x3f7b7082	0.9821855
63	0xbed03df2	-0.4067226

l2.bias f4 [8]
0	0x3ea9003f	0.33008
1	0x3e1d007c	0.15332216
2	0x3edc775b	0.4305981
3	0x3e9517f5	0.2911984
4	0x3f23bd7d	0.6396101
5	0x3f0618f8	0.5238185
6	0x3e7a7646	0.2445918
7	0x3e7fe286	0.24988756

l3.weight f4 [10, 8]
0	0xbf7b9fbd	-0.98290616
1	0xbea6cf2b	-0.32579932
2	0xbe0ff1ab	-0.14057033
3	0x3f3c70dd	0.73609716
4	0x3f45e8a1	0.7730809
5	0xbf9de6fd	-1.2336117
6	0xbf02bc84	-0.510689
7	0xbcf6fcf3	-0.030149912
8	0x3ef9f82e	0.4882216
9	0xbfdfd30f	-1.7486285
10	0xbe85ce92	-0.26134163
11	0x3ec5961b	0.38591084
12	0x3f0122e8	0.5044389
13	0x3e8ff6de	0.28118032
14	0xc0061797	-2.0951898
15	0xbfb3c07b	-1.4043115
16	0xbf037f0d	-0.5136574
17	0x3f588a99	0.84586483
18	0x3e3edda9	0.18639244
19	0xbfe84230	-1.8145199
20	0xbfdf1d64	-1.7430844
21	0x3ed68711	0.41899922
22	0x3f525042	0.82153714
23	0xbefd3ae5	-0.49458995
24	0x3f17f73f	0.5936164
25	0x3e130564	0.14357525
26	0x3eaad8e5	0.33368602
27	0xbd8c9dc2	-0.068660274
28	0xbfaed11e	-1.3657568
29	0xbfaa9dbf	-1.332939
30	0x3e2cce6a	0.16875616
31	0x3f76d119	0.9641281
32	0x3ed73c02	0.4203797
33	0xbf9f6b1c	-1.2454562
34	0xbf38605a	-0.7202202
35	0xbf3b8608	-0.7325139
36	0x3e2e5c24	0.17027336
37	0xbeccd2ca	-0.4000457
38	0x3f150b03	0.5821993
39	0xbfa23ed1	-1.267542
40	0x3f3389e2	0.7013227
41	0xbf79c467	-0.9756531
42	0xbf92cce6	-1.146878
43	0xbfc8f8fd	-1.5700985
44	0xbfab93ec	-1.3404517
45	0x3f44bb95	0.7684873
46	0xbdcac24e	-0.09900342
47	0xbfc3a903	-1.5285953
48	0xbf4be52b	-0.7964656
49	0xbfb628d4	-1.423121
50	0xbe118055	-0.14209111
51	0xbfbeb291	-1.4898244
52	0x3eecc146	0.46241206
53	0xbf8df816	-1.1091335
54	0x3f6759a0	0.9037113
55	0x3f4c9577	0.79915565
56	0xbd879bd0	-0.06621516
57	0xbf0cb766	-0.54967344
58	0x3eae7b3d	0.34078398
59	0x3ecf347b	0.40469727
60	0xbfa68844	-1.3010335
61	0x3f1ab3ce	0.6043061
62	0x3e6887be	0.22708032
63	0xbfb515ad	-1.414724
64	0xbf73551b	-0.95051736
65	0xbfbabd70	-1.4589062
66	0xbf92a915	-1.145785
67	0xbe9912ab	-0.29897055
68	0x3f2fc785	0.6866382
69	0x3f18e625	0.5972617
70	0x3df24960	0.118304014
71	0xbf90fb75	-1.1326739
72	0xbecbca74	-0.39802897
73	0x3f8d802d	1.1054741
74	0x3f309189	0.6897207
75	0x3ec5b6ef	0.3861613
76	0xbf058f70	-0.52171993
77	0xbf162fb3	-0.58666533
78	0xbf95fea2	-1.1718333
79	0xbfa53db1	-1.2909452

l3.bias f4 [10]
0	0x3d8190ea	0.06326468
1	0x3ca67352	0.02031866
2	0xbe7a3858	-0.24435556
3	0xbddfc398	-0.109259784
4	0xbf131e15	-0.57467777
5	0x3ea55cd2	0.3229738
6	0x3d8a7c7a	0.06762023
7	0xbf1f0dea	-0.62130606
8	0xbed15938	-0.4088838
9	0xbe827eec	-0.2548746
