data.pth (torch, 5271 bytes, 6 tensors)

l1.weight f4 [8, 61]
00000000: c8b9 253d 0077 a1be d681 8fbe ca83 52be
00000010: d2bf 0dbe c755 853e e4ce 143f eccb 7a3e
00000020: d6b6 0bbf 7e09 4f3e cc55 d6be f08d 063e
00000030: bc67 333e b16c 413d d1eb 1e3f cc20 3b3e
00000040: b8d9 5d3e 2ed1 003f 57b2 903e 9873 ec3e
00000050: 9e9f 183d 76a5 a83d 39d4 85bd 3a77 863e
00000060: db6b 17be cf43 833e 6805 c1be 617f 65be
00000070: 5ad5 a73e 01e0 d13e 2085 0a3f f250 dc3e
00000080: f00d 293f 3837 8a3d 1682 d93d 704d 383f
00000090: 3b95 7bbe f011 8d3e acb8 5ebe 7a11 9bbe
000000a0: 8c09 5a3e 9589 023f d1a6 183f 8533 583e
000000b0: 3f3f 013f 9259 033f 1b86 04be e165 643e
000000c0: d91f 05bd e5b9 1bbf d95c 28be e2e1 bf3e
000000d0: 2da2 383f 9a04 893e 5012 44be eefc 033f
000000e0: e2fa 7fbe 7518 59be c711 b1bd 9ac9 8e3e
000000f0: e232 a3be e569 e43d 409e 2abc e2bc 57bd
00000100: 1ee4 7d3e 8250 af3e 0279 e4bd f1f9 82be
00000110: 14ea 2ebe f5f2 173f 8077 f1ba d54c 073f
00000120: 419d 31be d275 d83b d0f7 b4bd c829 83be
00000130: 2745 6a3d 1845 dcbd 9894 dcbd 2509 23be
00000140: 2ac0 afbd 5e4e d33d 6070 2dbc 7da3 2bbd
00000150: 0c65 c2bd 1d1c c73d f767 a4bd cba9 fa3e
00000160: 3850 9a3e 1ef6 02be 8003 83be caf7 82be
00000170: 3b00 83be 0625 b3be 5153 dfbc 59b2 883d
00000180: 62fa 82be 7d68 973e 0d35 c1bc ee80 193e
00000190: d293 5e3c 577a 01bc af04 83be 34e0 83be
000001a0: 1b51 71bc ad44 55bd 7a0e 83be fdee b83d
000001b0: 2d38 dc3c 4a17 e53c e474 0e3f 660e 6b3e
000001c0: 4138 ecbd 2b26 83be d6d9 d0bd ef60 953e
000001d0: a3d1 17be e6d0 bdbc d26c 513e 1493 09be
000001e0: f318 01be 88bc 3c3e 9bbe 04be 54f1 083f
000001f0: 7831 3d3f 5f0a adbe 3b99 a0be 957f d83e
00000200: f56b 043f 6829 813e e4fd 123f 40fc d4bd
00000210: bc1b ed3e 8c10 afbe 4979 98be 8c9f fdbd
00000220: 1076 d33e e4d5 a3bd 646d 86be f013 323e
00000230: 37d7 84be b55a c63e a4fd 92bc 60e4 fc3c
00000240: deb2 cd3e 2540 56be 93eb b73e 4cf8 693e
00000250: 72ef 39bf 0125 d5be f09c 943e 21d1 183f
00000260: 011c 013f ef1b ec3e 31c9 213f 2c98 eebd
00000270: 4e4f 313c 7bda d33e a07b bcbe 13ad 413d
00000280: 9c1e 21be 043f a53e 4be6 aa3e bf26 d23e
00000290: 76a6 273f a5d7 c0be c3ee 543e 7b1f 9e3e
000002a0: 0c8f 093f ca29 42be f559 48be 437a c43e
000002b0: 97e9 d2be 8513 153e fade d93e 5c80 8b3e
000002c0: 2214 c6be 4f92 953e 183e a93e 0e8c da3e
000002d0: 891e cabd c8c2 b53e 348d 5e3f d011 3a3c
000002e0: 82a8 d63e 0b43 023f f502 893d 5136 253e
000002f0: 757a 9e3d b557 9ebe b033 c4bd e1fc 3f3f
00000300: 1b63 dbbd 7758 503f 26de 06bd 2d96 96bd
00000310: 6fef 0d3d a8e2 a2be 6f33 0dbe 83dd 24bc
00000320: dd1a 1ebe a811 36bd c9f0 59be 56a7 aabd
00000330: 5d51 ba3c 9440 0b3e b195 243d 5b97 343e
00000340: 59ff 17bd 26d2 193e 864f 883c 961f 05be
00000350: 3e11 a3be 51b5 8fbe 261a a0be 4c1b ecbe
00000360: 7fdb 843d 1259 9d3c 4965 50be 79a5 ab3d
00000370: 499c cbbd e00b 713d f206 093f bb5e 2bbc
00000380: 66fe 85be 8e41 a3be 0222 73be b38e bdbc
00000390: e0f1 a2be 8781 7d3e 279b 1bbc 6274 0dbe
000003a0: 3793 233f 9a44 743d a35b ddbd 54bf a2be
000003b0: 560d b3bd da4f 083e 8d0b 28be 28a8 213f
000003c0: 8be8 813e a0d5 58bc 4d1b 3e3c de32 033f
000003d0: b73f 95bd bc27 4c3f 16e5 263f baaf c43d
000003e0: 4823 2f3e 085e 35bf c6d9 17bf 1e8c 80be
000003f0: 12d8 17bf 184b cabd 2228 0fbf 43c4 68be
0.040460378 -0.31536102 -0.28028744 -0.20558086 -0.13842705 0.26042005 0.5812819 0.24491853
-0.5457586 0.20218465 -0.41862333 0.13140082 0.1752004 0.047222797 0.6207858 0.1827423
0.21665084 0.5031918 0.28261063 0.4618194 0.037261598 0.08234684 -0.06534619 0.26262838
-0.14787237 0.2563767 -0.37699437 -0.22411872 0.32779962 0.40991214 0.5410938 0.43030506
0.6603689 0.067488134 0.10620515 0.7199316 -0.24568646 0.27552748 -0.21750134 -0.3028677
0.21292704 0.50991184 0.5962954 0.21113403 0.5048713 0.5130855 -0.12941782 0.22304489
-0.032501075 -0.6083053 -0.16441669 0.37477022 0.7212246 0.26761323 -0.1914761 0.51557815
-0.24998048 -0.21200736 -0.08645969 0.27888185 -0.31874758 0.1115301 -0.010413706 -0.052670367
0.24794051 0.3424111 -0.11155893 -0.25581315 -0.17081481 0.593551 -0.0018422455 0.5285161
-0.17345144 0.006605842 -0.08836329 -0.25617814 0.057194855 -0.10755366 -0.107705295 -0.15921457
-0.08581574 0.10317682 -0.010585874 -0.04190396 -0.094919294 0.09722159 -0.08027642 0.48957667
0.30139327 -0.12789199 -0.25588608 -0.25579673 -0.25586113 -0.34989184 -0.027261408 0.06674642
-0.25581652 0.29571906 -0.023584867 0.14990589 0.013585048 -0.007902703 -0.2558951 -0.2575699
-0.01472881 -0.052067447 -0.25596982 0.090299584 0.026882255 0.027965207 0.5564711 0.22954711
-0.11534167 -0.25615057 -0.10197799 0.29175517 -0.14826064 -0.0231709 0.20451668 -0.13435012
-0.12607174 0.18431294 -0.12963335 0.5349324 0.7390361 -0.33796975 -0.31366906 0.42284837
0.5172723 0.25226903 0.57418656 -0.10399675 0.46310222 -0.34192312 -0.29780033 -0.12383947
0.41301012 -0.07999781 -0.26255333 0.17390418 -0.25945446 0.3874108 -0.01794321 0.030870616
0.40175527 -0.20922907 0.35921916 0.22848624 -0.7263099 -0.41629794 0.29025984 0.59694105
0.50433356 0.46115062 0.6319762 -0.11650118 0.01082213 0.41377625 -0.36813068 0.047284197
-0.15734333 0.3227464 0.33378825 0.41045186 0.65488374 -0.37664524 0.20794205 0.30883393
0.537339 -0.18961254 -0.19565566 0.38374528 -0.4119384 0.14558227 0.4255293 0.27246368
-0.38687235 0.29213187 0.33055186 0.42684978 -0.09869105 0.3550017 0.8693421 0.011356786
0.41925436 0.5088355 0.06690017 0.16134001 0.077382006 -0.3092629 -0.09580171 0.7499524
-0.10712262 0.81384987 -0.0329267 -0.073528625 0.03465217 -0.3181355 -0.13789152 -0.010062578
-0.15439935 -0.044450432 -0.21283258 -0.08332698 0.022743875 0.13598853 0.04018182 0.17635863
-0.037108753 0.15021572 0.016639482 -0.1300033 -0.31849092 -0.2806802 -0.3126995 -0.46114576
0.06487178 0.019207511 -0.20351137 0.08381171 -0.099419184 0.058849216 0.5352622 -0.010459597
-0.26170653 -0.31885952 -0.23743442 -0.023139333 -0.3182516 0.24756442 -0.00949744 -0.13813928
0.6389651 0.059635736 -0.10808494 -0.31786597 -0.08742778 0.13311711 -0.16410656 0.6314721
0.2537273 -0.013234526 0.011603189 0.5124949 -0.07287543 0.7974813 0.6519331 0.0960383
0.17103302 -0.70846605 -0.5931667 -0.251069 -0.5931407 -0.09877604 -0.5592061 -0.22731118

l1.bias f4 [8]
00000000: fd95 183f d9b7 833e 7e41 5c3f c66a a33e
00000010: acd1 173f 9f6f 0a3f ba5e e93e d847 113f
0.59603864 0.25726202 0.86037433 0.319174 0.5930431 0.5407657 0.45580083 0.5675025

l2.weight f4 [8, 8]
00000000: 2da0 0f3f 9629 45bf edcb b33f 390e 59bf
00000010: 3136 b93e 187f 44be 64a9 2fbf 45ab 193f
00000020: 4790 8abf 39ed ff3e b9da a73f 2020 8d3f
00000030: ae90 be3c 24ab 9bbf 7585 b23f 6f82 6ebf
00000040: 9c36 6c3f 714a f4be dae0 5a3f 2188 ce3d
00000050: 2bad babf 19af 9b3f 9362 8e3f 115b 853f
00000060: 1236 b53e be58 b7be f018 d6bf 5469 d9be
00000070: 921c aebd 968a ec3e 7af7 8b3f 6fed 153f
00000080: d63b 86be e4e1 88bd 464b 48be 700a 6c3d
00000090: 4828 933d 8b13 6cbe 282f bcbd a0e9 3e3d
000000a0: 7314 723f 11a5 3dbf d365 913f c1d1 43bf
000000b0: 5614 fd3e f7bf edbe 8664 49bf df1e 443f
000000c0: bc4b 53be 8a18 febd 40c1 d03d 7182 26be
000000d0: 82d2 f2bd 04db bbbd 3fe6 b3be 1a6b 763e
000000e0: 726c 433f 15d1 fdbe 0987 223f deeb fcbd
000000f0: 6df3 b23f 88c0 bbbf 7b94 12bf f5d1 8b3e
0.56103784 -0.7701658 1.4046608 -0.8478733 0.36174157 -0.19189107 -0.68617845 0.6002696
-1.082528 0.49985674 1.3113624 1.1025429 0.023262348 -1.2161603 1.3946978 -0.93167776
0.9227083 -0.47713044 0.85499346 0.10084558 -1.4584097 1.216281 1.1123832 1.0418416
0.35392815 -0.35809892 -1.672636 -0.4246317 -0.08501543 0.46199483 1.0934899 0.5856542
-0.26217526 -0.0668371 -0.19559965 0.05762714 0.071854174 -0.2305433 -0.09188682 0.04660952
0.94562453 -0.74079996 1.1359199 -0.76491934 0.49429578 -0.4643552 -0.7866901 0.76609606
-0.20634359 -0.12407024 0.101931095 -0.16260697 -0.118565574 -0.09172633 -0.351366 0.24064294
0.7633735 -0.4957358 0.634873 -0.123496756 1.3980538 -1.4668131 -0.57257813 0.27308622

l2.bias f4 [8]
00000000: 17bf e43e 364b 803e 5481 49bc 746a f13d
00000010: 2fbc a4be 8872 ff3e 7fce a2be 98fb 903e
0.4467704 0.2505738 -0.012298901 0.117878824 -0.32174823 0.49892068 -0.3179817 0.2831695

l3.weight f4 [6, 8]
00000000: 4742 2ebf 8a3c 983f 0c75 283e e771 afbe
00000010: 9a83 253e d0a4 9abf 186b 5dbd 5266 c3bf
00000020: 58bc 66bf 7a0b 52bf d43b 5fbf a6ba 1bbf
00000030: c06b 783c acae 22bf c892 b3bd 4f35 6ebf
00000040: c536 a7bf b39f 87bf 018b 493f 6326 8d3f
00000050: a802 25bd 87b5 4ebf 801a b83d a1f3 dabe
00000060: 7d3d 203f 83f0 d7bf 3f48 6abf 0518 8ebe
00000070: 393f b23e 0581 203f b905 b0be a49b af3f
00000080: 1003 2f3f 32c0 8fbf d0b9 443f bdd8 44bf
00000090: a05b 8ebd cbdd bf3e f67a 72be b26f 84bf
000000a0: a98d ff3e 2b68 2a3f 1f14 cdbf 8ef9 08bf
000000b0: b690 74be 5097 8ebe aabe e5bd dc89 fa3e
-0.6806988 1.1893475 0.164509 -0.34266588 0.16163483 -1.2081547 -0.05405721 -1.5265601
-0.9013114 -0.8204876 -0.87200665 -0.6083168 0.015162408 -0.6354778 -0.08768231 -0.9305009
-1.3063589 -1.0595611 0.7872773 1.102734 -0.040285736 -0.8074574 0.089894295 -0.42764
0.62593824 -1.6870273 -0.9151649 -0.277527 0.3481386 0.6269687 -0.34379366 1.3719373
0.6836405 -1.1230528 0.7684603 -0.76893216 -0.0695107 0.37473902 -0.23679718 -1.0346587
0.49912766 0.665652 -1.6021765 -0.5350579 -0.23883328 -0.27849817 -0.11218007 0.48933303

l3.bias f4 [6]
00000000: c357 b6bf 61a9 2d40 0f8f d5bf 95c5 b0bf
00000010: d21b a1bf 2453 d5bf
-1.4245533 2.713463 -1.6684283 -1.3810297 -1.2586615 -1.6665998
